{"format": "graph-model", "generatedBy": "2.15.0", "convertedBy": "TensorFlow.js Converter v4.22.0", "signature": {"inputs": {"attention_mask:0": {"name": "attention_mask:0", "dtype": "DT_INT32", "tensorShape": {"dim": [{"size": "-1"}, {"size": "-1"}]}}, "input_ids:0": {"name": "input_ids:0", "dtype": "DT_INT32", "tensorShape": {"dim": [{"size": "-1"}, {"size": "-1"}]}}}, "outputs": {"logits": {"name": "Identity:0", "dtype": "DT_FLOAT", "tensorShape": {"dim": [{"size": "-1"}, {"size": "6"}]}}}}, "modelTopology": {"node": [{"name": "StatefulPartitionedCall/tf_bert_for_sequence_classification/bert/encoder/layer_._11/output/LayerNorm/batchnorm/ReadVariableOp", "op": "Const", "attr": {"value": {"tensor": {"dtype": "DT_FLOAT", "tensorShape": {"dim": [{"size": "768"}]}}}, "dtype": {"type": "DT_FLOAT"}}}, {"name": "StatefulPartitionedCall/tf_bert_for_sequence_classification/bert/encoder/layer_._11/output/dense/Tensordot/Const", "op": "Const", "attr": {"value": {"tensor": {"dtype": "DT_INT32", "tensorShape": {"dim": [{"size": "1"}]}}}, "dtype": {"type": "DT_INT32"}}}, {"name": "StatefulPartitionedCall/tf_bert_for_sequence_classification/bert/encoder/layer_._11/output/dense/Tensordot/axes", "op": "Const", "attr": {"value": {"tensor": {"dtype": "DT_INT32", "tensorShape": {"dim": [{"size": "1"}]}}}, "dtype": {"type": "DT_INT32"}}}, {"name": "StatefulPartitionedCall/tf_bert_for_sequence_classification/bert/encoder/layer_._11/output/dense/Tensordot/GatherV2_1/axis", "op": "Const", "attr": {"value": {"tensor": {"dtype": "DT_INT32", "tensorShape": {}}}, "dtype": {"type": "DT_INT32"}}}, {"name": "StatefulPartitionedCall/tf_bert_for_sequence_classification/bert/encoder/layer_._11/output/dense/Tensordot/Const_1", "op": "Const", "attr": {"value": {"tensor": {"dtype": "DT_INT32", "tensorShape": {"dim": [{"size": "1"}]}}}, "dtype": {"type": "DT_INT32"}}}, {"name": "StatefulPartitionedCall/tf_bert_for_sequence_classification/bert/encoder/layer_._11/output/dense/Tensordot/ReadVariableOp", "op": "Const", "attr": {"value": {"tensor": {"dtype": "DT_FLOAT", "tensorShape": {"dim": [{"size": "3072"}, {"size": "768"}]}}}, "dtype": {"type": "DT_FLOAT"}}}, {"name": "StatefulPartitionedCall/tf_bert_for_sequence_classification/bert/encoder/layer_._11/intermediate/Gelu/mul/x", "op": "Const", "attr": {"value": {"tensor": {"dtype": "DT_FLOAT", "tensorShape": {}}}, "dtype": {"type": "DT_FLOAT"}}}, {"name": "StatefulPartitionedCall/tf_bert_for_sequence_classification/bert/encoder/layer_._11/intermediate/Gelu/add/x", "op": "Const", "attr": {"value": {"tensor": {"dtype": "DT_FLOAT", "tensorShape": {}}}, "dtype": {"type": "DT_FLOAT"}}}, {"name": "StatefulPartitionedCall/tf_bert_for_sequence_classification/bert/encoder/layer_._11/intermediate/dense/Tensordot/Const", "op": "Const", "attr": {"value": {"tensor": {"dtype": "DT_INT32", "tensorShape": {"dim": [{"size": "1"}]}}}, "dtype": {"type": "DT_INT32"}}}, {"name": "StatefulPartitionedCall/tf_bert_for_sequence_classification/bert/encoder/layer_._11/intermediate/dense/Tensordot/axes", "op": "Const", "attr": {"value": {"tensor": {"dtype": "DT_INT32", "tensorShape": {"dim": [{"size": "1"}]}}}, "dtype": {"type": "DT_INT32"}}}, {"name": "StatefulPartitionedCall/tf_bert_for_sequence_classification/bert/encoder/layer_._11/intermediate/dense/Tensordot/GatherV2_1/axis", "op": "Const", "attr": {"value": {"tensor": {"dtype": "DT_INT32", "tensorShape": {}}}, "dtype": {"type": "DT_INT32"}}}, {"name": "StatefulPartitionedCall/tf_bert_for_sequence_classification/bert/encoder/layer_._11/intermediate/dense/Tensordot/Const_1", "op": "Const", "attr": {"value": {"tensor": {"dtype": "DT_INT32", "tensorShape": {"dim": [{"size": "1"}]}}}, "dtype": {"type": "DT_INT32"}}}, {"name": "StatefulPartitionedCall/tf_bert_for_sequence_classification/bert/encoder/layer_._11/intermediate/dense/Tensordot/ReadVariableOp", "op": "Const", "attr": {"value": {"tensor": {"dtype": "DT_FLOAT", "tensorShape": {"dim": [{"size": "768"}, {"size": "3072"}]}}}, "dtype": {"type": "DT_FLOAT"}}}, {"name": "StatefulPartitionedCall/tf_bert_for_sequence_classification/bert/encoder/layer_._11/intermediate/dense/Tensordot/free", "op": "Const", "attr": {"value": {"tensor": {"dtype": "DT_INT32", "tensorShape": {"dim": [{"size": "2"}]}}}, "dtype": {"type": "DT_INT32"}}}, {"name": "StatefulPartitionedCall/tf_bert_for_sequence_classification/bert/encoder/layer_._11/intermediate/dense/Tensordot/GatherV2/axis", "op": "Const", "attr": {"value": {"tensor": {"dtype": "DT_INT32", "tensorShape": {}}}, "dtype": {"type": "DT_INT32"}}}, {"name": "StatefulPartitionedCall/tf_bert_for_sequence_classification/bert/encoder/layer_._11/intermediate/dense/Tensordot/Const_2", "op": "Const", "attr": {"value": {"tensor": {"dtype": "DT_INT32", "tensorShape": {"dim": [{"size": "1"}]}}}, "dtype": {"type": "DT_INT32"}}}, {"name": "StatefulPartitionedCall/tf_bert_for_sequence_classification/bert/encoder/layer_._11/intermediate/dense/Tensordot/concat_1/axis", "op": "Const", "attr": {"value": {"tensor": {"dtype": "DT_INT32", "tensorShape": {}}}, "dtype": {"type": "DT_INT32"}}}, {"name": "StatefulPartitionedCall/tf_bert_for_sequence_classification/bert/encoder/layer_._11/intermediate/dense/BiasAdd/ReadVariableOp", "op": "Const", "attr": {"value": {"tensor": {"dtype": "DT_FLOAT", "tensorShape": {"dim": [{"size": "3072"}]}}}, "dtype": {"type": "DT_FLOAT"}}}, {"name": "ConstantFolding/StatefulPartitionedCall/tf_bert_for_sequence_classification/bert/encoder/layer_._11/intermediate/Gelu/truediv_recip", "op": "Const", "attr": {"value": {"tensor": {"dtype": "DT_FLOAT", "tensorShape": {}}}, "dtype": {"type": "DT_FLOAT"}}}, {"name": "StatefulPartitionedCall/tf_bert_for_sequence_classification/bert/encoder/layer_._11/output/dense/Tensordot/free", "op": "Const", "attr": {"value": {"tensor": {"dtype": "DT_INT32", "tensorShape": {"dim": [{"size": "2"}]}}}, "dtype": {"type": "DT_INT32"}}}, {"name": "StatefulPartitionedCall/tf_bert_for_sequence_classification/bert/encoder/layer_._11/output/dense/Tensordot/GatherV2/axis", "op": "Const", "attr": {"value": {"tensor": {"dtype": "DT_INT32", "tensorShape": {}}}, "dtype": {"type": "DT_INT32"}}}, {"name": "StatefulPartitionedCall/tf_bert_for_sequence_classification/bert/encoder/layer_._11/output/dense/Tensordot/Const_2", "op": "Const", "attr": {"value": {"tensor": {"dtype": "DT_INT32", "tensorShape": {"dim": [{"size": "1"}]}}}, "dtype": {"type": "DT_INT32"}}}, {"name": "StatefulPartitionedCall/tf_bert_for_sequence_classification/bert/encoder/layer_._11/output/dense/Tensordot/concat_1/axis", "op": "Const", "attr": {"value": {"tensor": {"dtype": "DT_INT32", "tensorShape": {}}}, "dtype": {"type": "DT_INT32"}}}, {"name": "StatefulPartitionedCall/tf_bert_for_sequence_classification/bert/encoder/layer_._11/output/dense/BiasAdd/ReadVariableOp", "op": "Const", "attr": {"value": {"tensor": {"dtype": "DT_FLOAT", "tensorShape": {"dim": [{"size": "768"}]}}}, "dtype": {"type": "DT_FLOAT"}}}, {"name": "StatefulPartitionedCall/tf_bert_for_sequence_classification/bert/encoder/layer_._11/attention/output/LayerNorm/batchnorm/ReadVariableOp", "op": "Const", "attr": {"value": {"tensor": {"dtype": "DT_FLOAT", "tensorShape": {"dim": [{"size": "768"}]}}}, "dtype": {"type": "DT_FLOAT"}}}, {"name": "StatefulPartitionedCall/tf_bert_for_sequence_classification/bert/encoder/layer_._11/attention/output/dense/Tensordot/Const", "op": "Const", "attr": {"value": {"tensor": {"dtype": "DT_INT32", "tensorShape": {"dim": [{"size": "1"}]}}}, "dtype": {"type": "DT_INT32"}}}, {"name": "StatefulPartitionedCall/tf_bert_for_sequence_classification/bert/encoder/layer_._11/attention/output/dense/Tensordot/axes", "op": "Const", "attr": {"value": {"tensor": {"dtype": "DT_INT32", "tensorShape": {"dim": [{"size": "1"}]}}}, "dtype": {"type": "DT_INT32"}}}, {"name": "StatefulPartitionedCall/tf_bert_for_sequence_classification/bert/encoder/layer_._11/attention/output/dense/Tensordot/GatherV2_1/axis", "op": "Const", "attr": {"value": {"tensor": {"dtype": "DT_INT32", "tensorShape": {}}}, "dtype": {"type": "DT_INT32"}}}, {"name": "StatefulPartitionedCall/tf_bert_for_sequence_classification/bert/encoder/layer_._11/attention/output/dense/Tensordot/Const_1", "op": "Const", "attr": {"value": {"tensor": {"dtype": "DT_INT32", "tensorShape": {"dim": [{"size": "1"}]}}}, "dtype": {"type": "DT_INT32"}}}, {"name": "StatefulPartitionedCall/tf_bert_for_sequence_classification/bert/encoder/layer_._11/attention/output/dense/Tensordot/ReadVariableOp", "op": "Const", "attr": {"value": {"tensor": {"dtype": "DT_FLOAT", "tensorShape": {"dim": [{"size": "768"}, {"size": "768"}]}}}, "dtype": {"type": "DT_FLOAT"}}}, {"name": "StatefulPartitionedCall/tf_bert_for_sequence_classification/bert/encoder/layer_._11/attention/self/query/Tensordot/Const", "op": "Const", "attr": {"value": {"tensor": {"dtype": "DT_INT32", "tensorShape": {"dim": [{"size": "1"}]}}}, "dtype": {"type": "DT_INT32"}}}, {"name": "StatefulPartitionedCall/tf_bert_for_sequence_classification/bert/encoder/layer_._11/attention/self/query/Tensordot/axes", "op": "Const", "attr": {"value": {"tensor": {"dtype": "DT_INT32", "tensorShape": {"dim": [{"size": "1"}]}}}, "dtype": {"type": "DT_INT32"}}}, {"name": "StatefulPartitionedCall/tf_bert_for_sequence_classification/bert/encoder/layer_._11/attention/self/query/Tensordot/GatherV2_1/axis", "op": "Const", "attr": {"value": {"tensor": {"dtype": "DT_INT32", "tensorShape": {}}}, "dtype": {"type": "DT_INT32"}}}, {"name": "StatefulPartitionedCall/tf_bert_for_sequence_classification/bert/encoder/layer_._11/attention/self/query/Tensordot/Const_1", "op": "Const", "attr": {"value": {"tensor": {"dtype": "DT_INT32", "tensorShape": {"dim": [{"size": "1"}]}}}, "dtype": {"type": "DT_INT32"}}}, {"name": "StatefulPartitionedCall/tf_bert_for_sequence_classification/bert/encoder/layer_._11/attention/self/query/Tensordot/ReadVariableOp", "op": "Const", "attr": {"value": {"tensor": {"dtype": "DT_FLOAT", "tensorShape": {"dim": [{"size": "768"}, {"size": "768"}]}}}, "dtype": {"type": "DT_FLOAT"}}}, {"name": "StatefulPartitionedCall/tf_bert_for_sequence_classification/bert/encoder/layer_._11/attention/self/query/Tensordot/free", "op": "Const", "attr": {"value": {"tensor": {"dtype": "DT_INT32", "tensorShape": {"dim": [{"size": "2"}]}}}, "dtype": {"type": "DT_INT32"}}}, {"name": "StatefulPartitionedCall/tf_bert_for_sequence_classification/bert/encoder/layer_._11/attention/self/query/Tensordot/GatherV2/axis", "op": "Const", "attr": {"value": {"tensor": {"dtype": "DT_INT32", "tensorShape": {}}}, "dtype": {"type": "DT_INT32"}}}, {"name": "StatefulPartitionedCall/tf_bert_for_sequence_classification/bert/encoder/layer_._11/attention/self/query/Tensordot/Const_2", "op": "Const", "attr": {"value": {"tensor": {"dtype": "DT_INT32", "tensorShape": {"dim": [{"size": "1"}]}}}, "dtype": {"type": "DT_INT32"}}}, {"name": "StatefulPartitionedCall/tf_bert_for_sequence_classification/bert/encoder/layer_._11/attention/self/query/Tensordot/concat_1/axis", "op": "Const", "attr": {"value": {"tensor": {"dtype": "DT_INT32", "tensorShape": {}}}, "dtype": {"type": "DT_INT32"}}}, {"name": "StatefulPartitionedCall/tf_bert_for_sequence_classification/bert/encoder/layer_._11/attention/self/query/BiasAdd/ReadVariableOp", "op": "Const", "attr": {"value": {"tensor": {"dtype": "DT_FLOAT", "tensorShape": {"dim": [{"size": "768"}]}}}, "dtype": {"type": "DT_FLOAT"}}}, {"name": "StatefulPartitionedCall/tf_bert_for_sequence_classification/bert/encoder/layer_._11/attention/self/Reshape_2/shape/1", "op": "Const", "attr": {"value": {"tensor": {"dtype": "DT_INT32", "tensorShape": {}}}, "dtype": {"type": "DT_INT32"}}}, {"name": "StatefulPartitionedCall/tf_bert_for_sequence_classification/bert/encoder/layer_._11/attention/self/Reshape_2/shape/2", "op": "Const", "attr": {"value": {"tensor": {"dtype": "DT_INT32", "tensorShape": {}}}, "dtype": {"type": "DT_INT32"}}}, {"name": "StatefulPartitionedCall/tf_bert_for_sequence_classification/bert/encoder/layer_._11/attention/self/Reshape_2/shape/3", "op": "Const", "attr": {"value": {"tensor": {"dtype": "DT_INT32", "tensorShape": {}}}, "dtype": {"type": "DT_INT32"}}}, {"name": "StatefulPartitionedCall/tf_bert_for_sequence_classification/bert/encoder/layer_._11/attention/self/transpose_2/perm", "op": "Const", "attr": {"value": {"tensor": {"dtype": "DT_INT32", "tensorShape": {"dim": [{"size": "4"}]}}}, "dtype": {"type": "DT_INT32"}}}, {"name": "StatefulPartitionedCall/tf_bert_for_sequence_classification/bert/encoder/layer_._11/attention/self/key/Tensordot/Const", "op": "Const", "attr": {"value": {"tensor": {"dtype": "DT_INT32", "tensorShape": {"dim": [{"size": "1"}]}}}, "dtype": {"type": "DT_INT32"}}}, {"name": "StatefulPartitionedCall/tf_bert_for_sequence_classification/bert/encoder/layer_._11/attention/self/key/Tensordot/axes", "op": "Const", "attr": {"value": {"tensor": {"dtype": "DT_INT32", "tensorShape": {"dim": [{"size": "1"}]}}}, "dtype": {"type": "DT_INT32"}}}, {"name": "StatefulPartitionedCall/tf_bert_for_sequence_classification/bert/encoder/layer_._11/attention/self/key/Tensordot/GatherV2_1/axis", "op": "Const", "attr": {"value": {"tensor": {"dtype": "DT_INT32", "tensorShape": {}}}, "dtype": {"type": "DT_INT32"}}}, {"name": "StatefulPartitionedCall/tf_bert_for_sequence_classification/bert/encoder/layer_._11/attention/self/key/Tensordot/Const_1", "op": "Const", "attr": {"value": {"tensor": {"dtype": "DT_INT32", "tensorShape": {"dim": [{"size": "1"}]}}}, "dtype": {"type": "DT_INT32"}}}, {"name": "StatefulPartitionedCall/tf_bert_for_sequence_classification/bert/encoder/layer_._11/attention/self/key/Tensordot/ReadVariableOp", "op": "Const", "attr": {"value": {"tensor": {"dtype": "DT_FLOAT", "tensorShape": {"dim": [{"size": "768"}, {"size": "768"}]}}}, "dtype": {"type": "DT_FLOAT"}}}, {"name": "StatefulPartitionedCall/tf_bert_for_sequence_classification/bert/encoder/layer_._11/attention/self/key/Tensordot/free", "op": "Const", "attr": {"value": {"tensor": {"dtype": "DT_INT32", "tensorShape": {"dim": [{"size": "2"}]}}}, "dtype": {"type": "DT_INT32"}}}, {"name": "StatefulPartitionedCall/tf_bert_for_sequence_classification/bert/encoder/layer_._11/attention/self/key/Tensordot/GatherV2/axis", "op": "Const", "attr": {"value": {"tensor": {"dtype": "DT_INT32", "tensorShape": {}}}, "dtype": {"type": "DT_INT32"}}}, {"name": "StatefulPartitionedCall/tf_bert_for_sequence_classification/bert/encoder/layer_._11/attention/self/key/Tensordot/Const_2", "op": "Const", "attr": {"value": {"tensor": {"dtype": "DT_INT32", "tensorShape": {"dim": [{"size": "1"}]}}}, "dtype": {"type": "DT_INT32"}}}, {"name": "StatefulPartitionedCall/tf_bert_for_sequence_classification/bert/encoder/layer_._11/attention/self/key/Tensordot/concat_1/axis", "op": "Const", "attr": {"value": {"tensor": {"dtype": "DT_INT32", "tensorShape": {}}}, "dtype": {"type": "DT_INT32"}}}, {"name": "StatefulPartitionedCall/tf_bert_for_sequence_classification/bert/encoder/layer_._11/attention/self/key/BiasAdd/ReadVariableOp", "op": "Const", "attr": {"value": {"tensor": {"dtype": "DT_FLOAT", "tensorShape": {"dim": [{"size": "768"}]}}}, "dtype": {"type": "DT_FLOAT"}}}, {"name": "StatefulPartitionedCall/tf_bert_for_sequence_classification/bert/encoder/layer_._11/attention/self/Reshape/shape/1", "op": "Const", "attr": {"value": {"tensor": {"dtype": "DT_INT32", "tensorShape": {}}}, "dtype": {"type": "DT_INT32"}}}, {"name": "StatefulPartitionedCall/tf_bert_for_sequence_classification/bert/encoder/layer_._11/attention/self/Reshape/shape/2", "op": "Const", "attr": {"value": {"tensor": {"dtype": "DT_INT32", "tensorShape": {}}}, "dtype": {"type": "DT_INT32"}}}, {"name": "StatefulPartitionedCall/tf_bert_for_sequence_classification/bert/encoder/layer_._11/attention/self/Reshape/shape/3", "op": "Const", "attr": {"value": {"tensor": {"dtype": "DT_INT32", "tensorShape": {}}}, "dtype": {"type": "DT_INT32"}}}, {"name": "StatefulPartitionedCall/tf_bert_for_sequence_classification/bert/encoder/layer_._11/attention/self/transpose/perm", "op": "Const", "attr": {"value": {"tensor": {"dtype": "DT_INT32", "tensorShape": {"dim": [{"size": "4"}]}}}, "dtype": {"type": "DT_INT32"}}}, {"name": "ConstantFolding/StatefulPartitionedCall/tf_bert_for_sequence_classification/bert/encoder/layer_._11/attention/self/truediv_recip", "op": "Const", "attr": {"value": {"tensor": {"dtype": "DT_FLOAT", "tensorShape": {}}}, "dtype": {"type": "DT_FLOAT"}}}, {"name": "StatefulPartitionedCall/tf_bert_for_sequence_classification/bert/encoder/layer_._11/attention/self/add_1/y", "op": "Const", "attr": {"value": {"tensor": {"dtype": "DT_FLOAT", "tensorShape": {}}}, "dtype": {"type": "DT_FLOAT"}}}, {"name": "StatefulPartitionedCall/tf_bert_for_sequence_classification/bert/encoder/layer_._11/attention/self/value/Tensordot/Const", "op": "Const", "attr": {"value": {"tensor": {"dtype": "DT_INT32", "tensorShape": {"dim": [{"size": "1"}]}}}, "dtype": {"type": "DT_INT32"}}}, {"name": "StatefulPartitionedCall/tf_bert_for_sequence_classification/bert/encoder/layer_._11/attention/self/value/Tensordot/axes", "op": "Const", "attr": {"value": {"tensor": {"dtype": "DT_INT32", "tensorShape": {"dim": [{"size": "1"}]}}}, "dtype": {"type": "DT_INT32"}}}, {"name": "StatefulPartitionedCall/tf_bert_for_sequence_classification/bert/encoder/layer_._11/attention/self/value/Tensordot/GatherV2_1/axis", "op": "Const", "attr": {"value": {"tensor": {"dtype": "DT_INT32", "tensorShape": {}}}, "dtype": {"type": "DT_INT32"}}}, {"name": "StatefulPartitionedCall/tf_bert_for_sequence_classification/bert/encoder/layer_._11/attention/self/value/Tensordot/Const_1", "op": "Const", "attr": {"value": {"tensor": {"dtype": "DT_INT32", "tensorShape": {"dim": [{"size": "1"}]}}}, "dtype": {"type": "DT_INT32"}}}, {"name": "StatefulPartitionedCall/tf_bert_for_sequence_classification/bert/encoder/layer_._11/attention/self/value/Tensordot/ReadVariableOp", "op": "Const", "attr": {"value": {"tensor": {"dtype": "DT_FLOAT", "tensorShape": {"dim": [{"size": "768"}, {"size": "768"}]}}}, "dtype": {"type": "DT_FLOAT"}}}, {"name": "StatefulPartitionedCall/tf_bert_for_sequence_classification/bert/encoder/layer_._11/attention/self/value/Tensordot/free", "op": "Const", "attr": {"value": {"tensor": {"dtype": "DT_INT32", "tensorShape": {"dim": [{"size": "2"}]}}}, "dtype": {"type": "DT_INT32"}}}, {"name": "StatefulPartitionedCall/tf_bert_for_sequence_classification/bert/encoder/layer_._11/attention/self/value/Tensordot/GatherV2/axis", "op": "Const", "attr": {"value": {"tensor": {"dtype": "DT_INT32", "tensorShape": {}}}, "dtype": {"type": "DT_INT32"}}}, {"name": "StatefulPartitionedCall/tf_bert_for_sequence_classification/bert/encoder/layer_._11/attention/self/value/Tensordot/Const_2", "op": "Const", "attr": {"value": {"tensor": {"dtype": "DT_INT32", "tensorShape": {"dim": [{"size": "1"}]}}}, "dtype": {"type": "DT_INT32"}}}, {"name": "StatefulPartitionedCall/tf_bert_for_sequence_classification/bert/encoder/layer_._11/attention/self/value/Tensordot/concat_1/axis", "op": "Const", "attr": {"value": {"tensor": {"dtype": "DT_INT32", "tensorShape": {}}}, "dtype": {"type": "DT_INT32"}}}, {"name": "StatefulPartitionedCall/tf_bert_for_sequence_classification/bert/encoder/layer_._11/attention/self/value/BiasAdd/ReadVariableOp", "op": "Const", "attr": {"value": {"tensor": {"dtype": "DT_FLOAT", "tensorShape": {"dim": [{"size": "768"}]}}}, "dtype": {"type": "DT_FLOAT"}}}, {"name": "StatefulPartitionedCall/tf_bert_for_sequence_classification/bert/encoder/layer_._11/attention/self/Reshape_1/shape/1", "op": "Const", "attr": {"value": {"tensor": {"dtype": "DT_INT32", "tensorShape": {}}}, "dtype": {"type": "DT_INT32"}}}, {"name": "StatefulPartitionedCall/tf_bert_for_sequence_classification/bert/encoder/layer_._11/attention/self/Reshape_1/shape/2", "op": "Const", "attr": {"value": {"tensor": {"dtype": "DT_INT32", "tensorShape": {}}}, "dtype": {"type": "DT_INT32"}}}, {"name": "StatefulPartitionedCall/tf_bert_for_sequence_classification/bert/encoder/layer_._11/attention/self/Reshape_1/shape/3", "op": "Const", "attr": {"value": {"tensor": {"dtype": "DT_INT32", "tensorShape": {}}}, "dtype": {"type": "DT_INT32"}}}, {"name": "StatefulPartitionedCall/tf_bert_for_sequence_classification/bert/encoder/layer_._11/attention/self/transpose_1/perm", "op": "Const", "attr": {"value": {"tensor": {"dtype": "DT_INT32", "tensorShape": {"dim": [{"size": "4"}]}}}, "dtype": {"type": "DT_INT32"}}}, {"name": "StatefulPartitionedCall/tf_bert_for_sequence_classification/bert/encoder/layer_._11/attention/self/transpose_3/perm", "op": "Const", "attr": {"value": {"tensor": {"dtype": "DT_INT32", "tensorShape": {"dim": [{"size": "4"}]}}}, "dtype": {"type": "DT_INT32"}}}, {"name": "StatefulPartitionedCall/tf_bert_for_sequence_classification/bert/encoder/layer_._11/attention/self/strided_slice/stack", "op": "Const", "attr": {"value": {"tensor": {"dtype": "DT_INT32", "tensorShape": {"dim": [{"size": "1"}]}}}, "dtype": {"type": "DT_INT32"}}}, {"name": "StatefulPartitionedCall/tf_bert_for_sequence_classification/bert/encoder/layer_._11/attention/self/strided_slice/stack_1", "op": "Const", "attr": {"value": {"tensor": {"dtype": "DT_INT32", "tensorShape": {"dim": [{"size": "1"}]}}}, "dtype": {"type": "DT_INT32"}}}, {"name": "StatefulPartitionedCall/tf_bert_for_sequence_classification/bert/encoder/layer_._11/attention/self/strided_slice/stack_2", "op": "Const", "attr": {"value": {"tensor": {"dtype": "DT_INT32", "tensorShape": {"dim": [{"size": "1"}]}}}, "dtype": {"type": "DT_INT32"}}}, {"name": "StatefulPartitionedCall/tf_bert_for_sequence_classification/bert/encoder/layer_._11/attention/self/Reshape_3/shape/1", "op": "Const", "attr": {"value": {"tensor": {"dtype": "DT_INT32", "tensorShape": {}}}, "dtype": {"type": "DT_INT32"}}}, {"name": "StatefulPartitionedCall/tf_bert_for_sequence_classification/bert/encoder/layer_._11/attention/self/Reshape_3/shape/2", "op": "Const", "attr": {"value": {"tensor": {"dtype": "DT_INT32", "tensorShape": {}}}, "dtype": {"type": "DT_INT32"}}}, {"name": "StatefulPartitionedCall/tf_bert_for_sequence_classification/bert/encoder/layer_._11/attention/output/dense/Tensordot/free", "op": "Const", "attr": {"value": {"tensor": {"dtype": "DT_INT32", "tensorShape": {"dim": [{"size": "2"}]}}}, "dtype": {"type": "DT_INT32"}}}, {"name": "StatefulPartitionedCall/tf_bert_for_sequence_classification/bert/encoder/layer_._11/attention/output/dense/Tensordot/GatherV2/axis", "op": "Const", "attr": {"value": {"tensor": {"dtype": "DT_INT32", "tensorShape": {}}}, "dtype": {"type": "DT_INT32"}}}, {"name": "StatefulPartitionedCall/tf_bert_for_sequence_classification/bert/encoder/layer_._11/attention/output/dense/Tensordot/Const_2", "op": "Const", "attr": {"value": {"tensor": {"dtype": "DT_INT32", "tensorShape": {"dim": [{"size": "1"}]}}}, "dtype": {"type": "DT_INT32"}}}, {"name": "StatefulPartitionedCall/tf_bert_for_sequence_classification/bert/encoder/layer_._11/attention/output/dense/Tensordot/concat_1/axis", "op": "Const", "attr": {"value": {"tensor": {"dtype": "DT_INT32", "tensorShape": {}}}, "dtype": {"type": "DT_INT32"}}}, {"name": "StatefulPartitionedCall/tf_bert_for_sequence_classification/bert/encoder/layer_._11/attention/output/dense/BiasAdd/ReadVariableOp", "op": "Const", "attr": {"value": {"tensor": {"dtype": "DT_FLOAT", "tensorShape": {"dim": [{"size": "768"}]}}}, "dtype": {"type": "DT_FLOAT"}}}, {"name": "StatefulPartitionedCall/tf_bert_for_sequence_classification/bert/encoder/layer_._10/output/LayerNorm/batchnorm/ReadVariableOp", "op": "Const", "attr": {"value": {"tensor": {"dtype": "DT_FLOAT", "tensorShape": {"dim": [{"size": "768"}]}}}, "dtype": {"type": "DT_FLOAT"}}}, {"name": "StatefulPartitionedCall/tf_bert_for_sequence_classification/bert/encoder/layer_._10/output/dense/Tensordot/Const", "op": "Const", "attr": {"value": {"tensor": {"dtype": "DT_INT32", "tensorShape": {"dim": [{"size": "1"}]}}}, "dtype": {"type": "DT_INT32"}}}, {"name": "StatefulPartitionedCall/tf_bert_for_sequence_classification/bert/encoder/layer_._10/output/dense/Tensordot/axes", "op": "Const", "attr": {"value": {"tensor": {"dtype": "DT_INT32", "tensorShape": {"dim": [{"size": "1"}]}}}, "dtype": {"type": "DT_INT32"}}}, {"name": "StatefulPartitionedCall/tf_bert_for_sequence_classification/bert/encoder/layer_._10/output/dense/Tensordot/GatherV2_1/axis", "op": "Const", "attr": {"value": {"tensor": {"dtype": "DT_INT32", "tensorShape": {}}}, "dtype": {"type": "DT_INT32"}}}, {"name": "StatefulPartitionedCall/tf_bert_for_sequence_classification/bert/encoder/layer_._10/output/dense/Tensordot/Const_1", "op": "Const", "attr": {"value": {"tensor": {"dtype": "DT_INT32", "tensorShape": {"dim": [{"size": "1"}]}}}, "dtype": {"type": "DT_INT32"}}}, {"name": "StatefulPartitionedCall/tf_bert_for_sequence_classification/bert/encoder/layer_._10/output/dense/Tensordot/ReadVariableOp", "op": "Const", "attr": {"value": {"tensor": {"dtype": "DT_FLOAT", "tensorShape": {"dim": [{"size": "3072"}, {"size": "768"}]}}}, "dtype": {"type": "DT_FLOAT"}}}, {"name": "StatefulPartitionedCall/tf_bert_for_sequence_classification/bert/encoder/layer_._10/intermediate/Gelu/mul/x", "op": "Const", "attr": {"value": {"tensor": {"dtype": "DT_FLOAT", "tensorShape": {}}}, "dtype": {"type": "DT_FLOAT"}}}, {"name": "StatefulPartitionedCall/tf_bert_for_sequence_classification/bert/encoder/layer_._10/intermediate/Gelu/add/x", "op": "Const", "attr": {"value": {"tensor": {"dtype": "DT_FLOAT", "tensorShape": {}}}, "dtype": {"type": "DT_FLOAT"}}}, {"name": "StatefulPartitionedCall/tf_bert_for_sequence_classification/bert/encoder/layer_._10/intermediate/dense/Tensordot/Const", "op": "Const", "attr": {"value": {"tensor": {"dtype": "DT_INT32", "tensorShape": {"dim": [{"size": "1"}]}}}, "dtype": {"type": "DT_INT32"}}}, {"name": "StatefulPartitionedCall/tf_bert_for_sequence_classification/bert/encoder/layer_._10/intermediate/dense/Tensordot/axes", "op": "Const", "attr": {"value": {"tensor": {"dtype": "DT_INT32", "tensorShape": {"dim": [{"size": "1"}]}}}, "dtype": {"type": "DT_INT32"}}}, {"name": "StatefulPartitionedCall/tf_bert_for_sequence_classification/bert/encoder/layer_._10/intermediate/dense/Tensordot/GatherV2_1/axis", "op": "Const", "attr": {"value": {"tensor": {"dtype": "DT_INT32", "tensorShape": {}}}, "dtype": {"type": "DT_INT32"}}}, {"name": "StatefulPartitionedCall/tf_bert_for_sequence_classification/bert/encoder/layer_._10/intermediate/dense/Tensordot/Const_1", "op": "Const", "attr": {"value": {"tensor": {"dtype": "DT_INT32", "tensorShape": {"dim": [{"size": "1"}]}}}, "dtype": {"type": "DT_INT32"}}}, {"name": "StatefulPartitionedCall/tf_bert_for_sequence_classification/bert/encoder/layer_._10/intermediate/dense/Tensordot/ReadVariableOp", "op": "Const", "attr": {"value": {"tensor": {"dtype": "DT_FLOAT", "tensorShape": {"dim": [{"size": "768"}, {"size": "3072"}]}}}, "dtype": {"type": "DT_FLOAT"}}}, {"name": "StatefulPartitionedCall/tf_bert_for_sequence_classification/bert/encoder/layer_._10/intermediate/dense/Tensordot/free", "op": "Const", "attr": {"value": {"tensor": {"dtype": "DT_INT32", "tensorShape": {"dim": [{"size": "2"}]}}}, "dtype": {"type": "DT_INT32"}}}, {"name": "StatefulPartitionedCall/tf_bert_for_sequence_classification/bert/encoder/layer_._10/intermediate/dense/Tensordot/GatherV2/axis", "op": "Const", "attr": {"value": {"tensor": {"dtype": "DT_INT32", "tensorShape": {}}}, "dtype": {"type": "DT_INT32"}}}, {"name": "StatefulPartitionedCall/tf_bert_for_sequence_classification/bert/encoder/layer_._10/intermediate/dense/Tensordot/Const_2", "op": "Const", "attr": {"value": {"tensor": {"dtype": "DT_INT32", "tensorShape": {"dim": [{"size": "1"}]}}}, "dtype": {"type": "DT_INT32"}}}, {"name": "StatefulPartitionedCall/tf_bert_for_sequence_classification/bert/encoder/layer_._10/intermediate/dense/Tensordot/concat_1/axis", "op": "Const", "attr": {"value": {"tensor": {"dtype": "DT_INT32", "tensorShape": {}}}, "dtype": {"type": "DT_INT32"}}}, {"name": "StatefulPartitionedCall/tf_bert_for_sequence_classification/bert/encoder/layer_._10/intermediate/dense/BiasAdd/ReadVariableOp", "op": "Const", "attr": {"value": {"tensor": {"dtype": "DT_FLOAT", "tensorShape": {"dim": [{"size": "3072"}]}}}, "dtype": {"type": "DT_FLOAT"}}}, {"name": "ConstantFolding/StatefulPartitionedCall/tf_bert_for_sequence_classification/bert/encoder/layer_._10/intermediate/Gelu/truediv_recip", "op": "Const", "attr": {"value": {"tensor": {"dtype": "DT_FLOAT", "tensorShape": {}}}, "dtype": {"type": "DT_FLOAT"}}}, {"name": "StatefulPartitionedCall/tf_bert_for_sequence_classification/bert/encoder/layer_._10/output/dense/Tensordot/free", "op": "Const", "attr": {"value": {"tensor": {"dtype": "DT_INT32", "tensorShape": {"dim": [{"size": "2"}]}}}, "dtype": {"type": "DT_INT32"}}}, {"name": "StatefulPartitionedCall/tf_bert_for_sequence_classification/bert/encoder/layer_._10/output/dense/Tensordot/GatherV2/axis", "op": "Const", "attr": {"value": {"tensor": {"dtype": "DT_INT32", "tensorShape": {}}}, "dtype": {"type": "DT_INT32"}}}, {"name": "StatefulPartitionedCall/tf_bert_for_sequence_classification/bert/encoder/layer_._10/output/dense/Tensordot/Const_2", "op": "Const", "attr": {"value": {"tensor": {"dtype": "DT_INT32", "tensorShape": {"dim": [{"size": "1"}]}}}, "dtype": {"type": "DT_INT32"}}}, {"name": "StatefulPartitionedCall/tf_bert_for_sequence_classification/bert/encoder/layer_._10/output/dense/Tensordot/concat_1/axis", "op": "Const", "attr": {"value": {"tensor": {"dtype": "DT_INT32", "tensorShape": {}}}, "dtype": {"type": "DT_INT32"}}}, {"name": "StatefulPartitionedCall/tf_bert_for_sequence_classification/bert/encoder/layer_._10/output/dense/BiasAdd/ReadVariableOp", "op": "Const", "attr": {"value": {"tensor": {"dtype": "DT_FLOAT", "tensorShape": {"dim": [{"size": "768"}]}}}, "dtype": {"type": "DT_FLOAT"}}}, {"name": "StatefulPartitionedCall/tf_bert_for_sequence_classification/bert/encoder/layer_._10/attention/output/LayerNorm/batchnorm/ReadVariableOp", "op": "Const", "attr": {"value": {"tensor": {"dtype": "DT_FLOAT", "tensorShape": {"dim": [{"size": "768"}]}}}, "dtype": {"type": "DT_FLOAT"}}}, {"name": "StatefulPartitionedCall/tf_bert_for_sequence_classification/bert/encoder/layer_._10/attention/output/dense/Tensordot/Const", "op": "Const", "attr": {"value": {"tensor": {"dtype": "DT_INT32", "tensorShape": {"dim": [{"size": "1"}]}}}, "dtype": {"type": "DT_INT32"}}}, {"name": "StatefulPartitionedCall/tf_bert_for_sequence_classification/bert/encoder/layer_._10/attention/output/dense/Tensordot/axes", "op": "Const", "attr": {"value": {"tensor": {"dtype": "DT_INT32", "tensorShape": {"dim": [{"size": "1"}]}}}, "dtype": {"type": "DT_INT32"}}}, {"name": "StatefulPartitionedCall/tf_bert_for_sequence_classification/bert/encoder/layer_._10/attention/output/dense/Tensordot/GatherV2_1/axis", "op": "Const", "attr": {"value": {"tensor": {"dtype": "DT_INT32", "tensorShape": {}}}, "dtype": {"type": "DT_INT32"}}}, {"name": "StatefulPartitionedCall/tf_bert_for_sequence_classification/bert/encoder/layer_._10/attention/output/dense/Tensordot/Const_1", "op": "Const", "attr": {"value": {"tensor": {"dtype": "DT_INT32", "tensorShape": {"dim": [{"size": "1"}]}}}, "dtype": {"type": "DT_INT32"}}}, {"name": "StatefulPartitionedCall/tf_bert_for_sequence_classification/bert/encoder/layer_._10/attention/output/dense/Tensordot/ReadVariableOp", "op": "Const", "attr": {"value": {"tensor": {"dtype": "DT_FLOAT", "tensorShape": {"dim": [{"size": "768"}, {"size": "768"}]}}}, "dtype": {"type": "DT_FLOAT"}}}, {"name": "StatefulPartitionedCall/tf_bert_for_sequence_classification/bert/encoder/layer_._10/attention/self/query/Tensordot/Const", "op": "Const", "attr": {"value": {"tensor": {"dtype": "DT_INT32", "tensorShape": {"dim": [{"size": "1"}]}}}, "dtype": {"type": "DT_INT32"}}}, {"name": "StatefulPartitionedCall/tf_bert_for_sequence_classification/bert/encoder/layer_._10/attention/self/query/Tensordot/axes", "op": "Const", "attr": {"value": {"tensor": {"dtype": "DT_INT32", "tensorShape": {"dim": [{"size": "1"}]}}}, "dtype": {"type": "DT_INT32"}}}, {"name": "StatefulPartitionedCall/tf_bert_for_sequence_classification/bert/encoder/layer_._10/attention/self/query/Tensordot/GatherV2_1/axis", "op": "Const", "attr": {"value": {"tensor": {"dtype": "DT_INT32", "tensorShape": {}}}, "dtype": {"type": "DT_INT32"}}}, {"name": "StatefulPartitionedCall/tf_bert_for_sequence_classification/bert/encoder/layer_._10/attention/self/query/Tensordot/Const_1", "op": "Const", "attr": {"value": {"tensor": {"dtype": "DT_INT32", "tensorShape": {"dim": [{"size": "1"}]}}}, "dtype": {"type": "DT_INT32"}}}, {"name": "StatefulPartitionedCall/tf_bert_for_sequence_classification/bert/encoder/layer_._10/attention/self/query/Tensordot/ReadVariableOp", "op": "Const", "attr": {"value": {"tensor": {"dtype": "DT_FLOAT", "tensorShape": {"dim": [{"size": "768"}, {"size": "768"}]}}}, "dtype": {"type": "DT_FLOAT"}}}, {"name": "StatefulPartitionedCall/tf_bert_for_sequence_classification/bert/encoder/layer_._10/attention/self/query/Tensordot/free", "op": "Const", "attr": {"value": {"tensor": {"dtype": "DT_INT32", "tensorShape": {"dim": [{"size": "2"}]}}}, "dtype": {"type": "DT_INT32"}}}, {"name": "StatefulPartitionedCall/tf_bert_for_sequence_classification/bert/encoder/layer_._10/attention/self/query/Tensordot/GatherV2/axis", "op": "Const", "attr": {"value": {"tensor": {"dtype": "DT_INT32", "tensorShape": {}}}, "dtype": {"type": "DT_INT32"}}}, {"name": "StatefulPartitionedCall/tf_bert_for_sequence_classification/bert/encoder/layer_._10/attention/self/query/Tensordot/Const_2", "op": "Const", "attr": {"value": {"tensor": {"dtype": "DT_INT32", "tensorShape": {"dim": [{"size": "1"}]}}}, "dtype": {"type": "DT_INT32"}}}, {"name": "StatefulPartitionedCall/tf_bert_for_sequence_classification/bert/encoder/layer_._10/attention/self/query/Tensordot/concat_1/axis", "op": "Const", "attr": {"value": {"tensor": {"dtype": "DT_INT32", "tensorShape": {}}}, "dtype": {"type": "DT_INT32"}}}, {"name": "StatefulPartitionedCall/tf_bert_for_sequence_classification/bert/encoder/layer_._10/attention/self/query/BiasAdd/ReadVariableOp", "op": "Const", "attr": {"value": {"tensor": {"dtype": "DT_FLOAT", "tensorShape": {"dim": [{"size": "768"}]}}}, "dtype": {"type": "DT_FLOAT"}}}, {"name": "StatefulPartitionedCall/tf_bert_for_sequence_classification/bert/encoder/layer_._10/attention/self/Reshape_2/shape/1", "op": "Const", "attr": {"value": {"tensor": {"dtype": "DT_INT32", "tensorShape": {}}}, "dtype": {"type": "DT_INT32"}}}, {"name": "StatefulPartitionedCall/tf_bert_for_sequence_classification/bert/encoder/layer_._10/attention/self/Reshape_2/shape/2", "op": "Const", "attr": {"value": {"tensor": {"dtype": "DT_INT32", "tensorShape": {}}}, "dtype": {"type": "DT_INT32"}}}, {"name": "StatefulPartitionedCall/tf_bert_for_sequence_classification/bert/encoder/layer_._10/attention/self/Reshape_2/shape/3", "op": "Const", "attr": {"value": {"tensor": {"dtype": "DT_INT32", "tensorShape": {}}}, "dtype": {"type": "DT_INT32"}}}, {"name": "StatefulPartitionedCall/tf_bert_for_sequence_classification/bert/encoder/layer_._10/attention/self/transpose_2/perm", "op": "Const", "attr": {"value": {"tensor": {"dtype": "DT_INT32", "tensorShape": {"dim": [{"size": "4"}]}}}, "dtype": {"type": "DT_INT32"}}}, {"name": "StatefulPartitionedCall/tf_bert_for_sequence_classification/bert/encoder/layer_._10/attention/self/key/Tensordot/Const", "op": "Const", "attr": {"value": {"tensor": {"dtype": "DT_INT32", "tensorShape": {"dim": [{"size": "1"}]}}}, "dtype": {"type": "DT_INT32"}}}, {"name": "StatefulPartitionedCall/tf_bert_for_sequence_classification/bert/encoder/layer_._10/attention/self/key/Tensordot/axes", "op": "Const", "attr": {"value": {"tensor": {"dtype": "DT_INT32", "tensorShape": {"dim": [{"size": "1"}]}}}, "dtype": {"type": "DT_INT32"}}}, {"name": "StatefulPartitionedCall/tf_bert_for_sequence_classification/bert/encoder/layer_._10/attention/self/key/Tensordot/GatherV2_1/axis", "op": "Const", "attr": {"value": {"tensor": {"dtype": "DT_INT32", "tensorShape": {}}}, "dtype": {"type": "DT_INT32"}}}, {"name": "StatefulPartitionedCall/tf_bert_for_sequence_classification/bert/encoder/layer_._10/attention/self/key/Tensordot/Const_1", "op": "Const", "attr": {"value": {"tensor": {"dtype": "DT_INT32", "tensorShape": {"dim": [{"size": "1"}]}}}, "dtype": {"type": "DT_INT32"}}}, {"name": "StatefulPartitionedCall/tf_bert_for_sequence_classification/bert/encoder/layer_._10/attention/self/key/Tensordot/ReadVariableOp", "op": "Const", "attr": {"value": {"tensor": {"dtype": "DT_FLOAT", "tensorShape": {"dim": [{"size": "768"}, {"size": "768"}]}}}, "dtype": {"type": "DT_FLOAT"}}}, {"name": "StatefulPartitionedCall/tf_bert_for_sequence_classification/bert/encoder/layer_._10/attention/self/key/Tensordot/free", "op": "Const", "attr": {"value": {"tensor": {"dtype": "DT_INT32", "tensorShape": {"dim": [{"size": "2"}]}}}, "dtype": {"type": "DT_INT32"}}}, {"name": "StatefulPartitionedCall/tf_bert_for_sequence_classification/bert/encoder/layer_._10/attention/self/key/Tensordot/GatherV2/axis", "op": "Const", "attr": {"value": {"tensor": {"dtype": "DT_INT32", "tensorShape": {}}}, "dtype": {"type": "DT_INT32"}}}, {"name": "StatefulPartitionedCall/tf_bert_for_sequence_classification/bert/encoder/layer_._10/attention/self/key/Tensordot/Const_2", "op": "Const", "attr": {"value": {"tensor": {"dtype": "DT_INT32", "tensorShape": {"dim": [{"size": "1"}]}}}, "dtype": {"type": "DT_INT32"}}}, {"name": "StatefulPartitionedCall/tf_bert_for_sequence_classification/bert/encoder/layer_._10/attention/self/key/Tensordot/concat_1/axis", "op": "Const", "attr": {"value": {"tensor": {"dtype": "DT_INT32", "tensorShape": {}}}, "dtype": {"type": "DT_INT32"}}}, {"name": "StatefulPartitionedCall/tf_bert_for_sequence_classification/bert/encoder/layer_._10/attention/self/key/BiasAdd/ReadVariableOp", "op": "Const", "attr": {"value": {"tensor": {"dtype": "DT_FLOAT", "tensorShape": {"dim": [{"size": "768"}]}}}, "dtype": {"type": "DT_FLOAT"}}}, {"name": "StatefulPartitionedCall/tf_bert_for_sequence_classification/bert/encoder/layer_._10/attention/self/Reshape/shape/1", "op": "Const", "attr": {"value": {"tensor": {"dtype": "DT_INT32", "tensorShape": {}}}, "dtype": {"type": "DT_INT32"}}}, {"name": "StatefulPartitionedCall/tf_bert_for_sequence_classification/bert/encoder/layer_._10/attention/self/Reshape/shape/2", "op": "Const", "attr": {"value": {"tensor": {"dtype": "DT_INT32", "tensorShape": {}}}, "dtype": {"type": "DT_INT32"}}}, {"name": "StatefulPartitionedCall/tf_bert_for_sequence_classification/bert/encoder/layer_._10/attention/self/Reshape/shape/3", "op": "Const", "attr": {"value": {"tensor": {"dtype": "DT_INT32", "tensorShape": {}}}, "dtype": {"type": "DT_INT32"}}}, {"name": "StatefulPartitionedCall/tf_bert_for_sequence_classification/bert/encoder/layer_._10/attention/self/transpose/perm", "op": "Const", "attr": {"value": {"tensor": {"dtype": "DT_INT32", "tensorShape": {"dim": [{"size": "4"}]}}}, "dtype": {"type": "DT_INT32"}}}, {"name": "ConstantFolding/StatefulPartitionedCall/tf_bert_for_sequence_classification/bert/encoder/layer_._10/attention/self/truediv_recip", "op": "Const", "attr": {"value": {"tensor": {"dtype": "DT_FLOAT", "tensorShape": {}}}, "dtype": {"type": "DT_FLOAT"}}}, {"name": "StatefulPartitionedCall/tf_bert_for_sequence_classification/bert/encoder/layer_._10/attention/self/add_1/y", "op": "Const", "attr": {"value": {"tensor": {"dtype": "DT_FLOAT", "tensorShape": {}}}, "dtype": {"type": "DT_FLOAT"}}}, {"name": "StatefulPartitionedCall/tf_bert_for_sequence_classification/bert/encoder/layer_._10/attention/self/value/Tensordot/Const", "op": "Const", "attr": {"value": {"tensor": {"dtype": "DT_INT32", "tensorShape": {"dim": [{"size": "1"}]}}}, "dtype": {"type": "DT_INT32"}}}, {"name": "StatefulPartitionedCall/tf_bert_for_sequence_classification/bert/encoder/layer_._10/attention/self/value/Tensordot/axes", "op": "Const", "attr": {"value": {"tensor": {"dtype": "DT_INT32", "tensorShape": {"dim": [{"size": "1"}]}}}, "dtype": {"type": "DT_INT32"}}}, {"name": "StatefulPartitionedCall/tf_bert_for_sequence_classification/bert/encoder/layer_._10/attention/self/value/Tensordot/GatherV2_1/axis", "op": "Const", "attr": {"value": {"tensor": {"dtype": "DT_INT32", "tensorShape": {}}}, "dtype": {"type": "DT_INT32"}}}, {"name": "StatefulPartitionedCall/tf_bert_for_sequence_classification/bert/encoder/layer_._10/attention/self/value/Tensordot/Const_1", "op": "Const", "attr": {"value": {"tensor": {"dtype": "DT_INT32", "tensorShape": {"dim": [{"size": "1"}]}}}, "dtype": {"type": "DT_INT32"}}}, {"name": "StatefulPartitionedCall/tf_bert_for_sequence_classification/bert/encoder/layer_._10/attention/self/value/Tensordot/ReadVariableOp", "op": "Const", "attr": {"value": {"tensor": {"dtype": "DT_FLOAT", "tensorShape": {"dim": [{"size": "768"}, {"size": "768"}]}}}, "dtype": {"type": "DT_FLOAT"}}}, {"name": "StatefulPartitionedCall/tf_bert_for_sequence_classification/bert/encoder/layer_._10/attention/self/value/Tensordot/free", "op": "Const", "attr": {"value": {"tensor": {"dtype": "DT_INT32", "tensorShape": {"dim": [{"size": "2"}]}}}, "dtype": {"type": "DT_INT32"}}}, {"name": "StatefulPartitionedCall/tf_bert_for_sequence_classification/bert/encoder/layer_._10/attention/self/value/Tensordot/GatherV2/axis", "op": "Const", "attr": {"value": {"tensor": {"dtype": "DT_INT32", "tensorShape": {}}}, "dtype": {"type": "DT_INT32"}}}, {"name": "StatefulPartitionedCall/tf_bert_for_sequence_classification/bert/encoder/layer_._10/attention/self/value/Tensordot/Const_2", "op": "Const", "attr": {"value": {"tensor": {"dtype": "DT_INT32", "tensorShape": {"dim": [{"size": "1"}]}}}, "dtype": {"type": "DT_INT32"}}}, {"name": "StatefulPartitionedCall/tf_bert_for_sequence_classification/bert/encoder/layer_._10/attention/self/value/Tensordot/concat_1/axis", "op": "Const", "attr": {"value": {"tensor": {"dtype": "DT_INT32", "tensorShape": {}}}, "dtype": {"type": "DT_INT32"}}}, {"name": "StatefulPartitionedCall/tf_bert_for_sequence_classification/bert/encoder/layer_._10/attention/self/value/BiasAdd/ReadVariableOp", "op": "Const", "attr": {"value": {"tensor": {"dtype": "DT_FLOAT", "tensorShape": {"dim": [{"size": "768"}]}}}, "dtype": {"type": "DT_FLOAT"}}}, {"name": "StatefulPartitionedCall/tf_bert_for_sequence_classification/bert/encoder/layer_._10/attention/self/Reshape_1/shape/1", "op": "Const", "attr": {"value": {"tensor": {"dtype": "DT_INT32", "tensorShape": {}}}, "dtype": {"type": "DT_INT32"}}}, {"name": "StatefulPartitionedCall/tf_bert_for_sequence_classification/bert/encoder/layer_._10/attention/self/Reshape_1/shape/2", "op": "Const", "attr": {"value": {"tensor": {"dtype": "DT_INT32", "tensorShape": {}}}, "dtype": {"type": "DT_INT32"}}}, {"name": "StatefulPartitionedCall/tf_bert_for_sequence_classification/bert/encoder/layer_._10/attention/self/Reshape_1/shape/3", "op": "Const", "attr": {"value": {"tensor": {"dtype": "DT_INT32", "tensorShape": {}}}, "dtype": {"type": "DT_INT32"}}}, {"name": "StatefulPartitionedCall/tf_bert_for_sequence_classification/bert/encoder/layer_._10/attention/self/transpose_1/perm", "op": "Const", "attr": {"value": {"tensor": {"dtype": "DT_INT32", "tensorShape": {"dim": [{"size": "4"}]}}}, "dtype": {"type": "DT_INT32"}}}, {"name": "StatefulPartitionedCall/tf_bert_for_sequence_classification/bert/encoder/layer_._10/attention/self/transpose_3/perm", "op": "Const", "attr": {"value": {"tensor": {"dtype": "DT_INT32", "tensorShape": {"dim": [{"size": "4"}]}}}, "dtype": {"type": "DT_INT32"}}}, {"name": "StatefulPartitionedCall/tf_bert_for_sequence_classification/bert/encoder/layer_._10/attention/self/strided_slice/stack", "op": "Const", "attr": {"value": {"tensor": {"dtype": "DT_INT32", "tensorShape": {"dim": [{"size": "1"}]}}}, "dtype": {"type": "DT_INT32"}}}, {"name": "StatefulPartitionedCall/tf_bert_for_sequence_classification/bert/encoder/layer_._10/attention/self/strided_slice/stack_1", "op": "Const", "attr": {"value": {"tensor": {"dtype": "DT_INT32", "tensorShape": {"dim": [{"size": "1"}]}}}, "dtype": {"type": "DT_INT32"}}}, {"name": "StatefulPartitionedCall/tf_bert_for_sequence_classification/bert/encoder/layer_._10/attention/self/strided_slice/stack_2", "op": "Const", "attr": {"value": {"tensor": {"dtype": "DT_INT32", "tensorShape": {"dim": [{"size": "1"}]}}}, "dtype": {"type": "DT_INT32"}}}, {"name": "StatefulPartitionedCall/tf_bert_for_sequence_classification/bert/encoder/layer_._10/attention/self/Reshape_3/shape/1", "op": "Const", "attr": {"value": {"tensor": {"dtype": "DT_INT32", "tensorShape": {}}}, "dtype": {"type": "DT_INT32"}}}, {"name": "StatefulPartitionedCall/tf_bert_for_sequence_classification/bert/encoder/layer_._10/attention/self/Reshape_3/shape/2", "op": "Const", "attr": {"value": {"tensor": {"dtype": "DT_INT32", "tensorShape": {}}}, "dtype": {"type": "DT_INT32"}}}, {"name": "StatefulPartitionedCall/tf_bert_for_sequence_classification/bert/encoder/layer_._10/attention/output/dense/Tensordot/free", "op": "Const", "attr": {"value": {"tensor": {"dtype": "DT_INT32", "tensorShape": {"dim": [{"size": "2"}]}}}, "dtype": {"type": "DT_INT32"}}}, {"name": "StatefulPartitionedCall/tf_bert_for_sequence_classification/bert/encoder/layer_._10/attention/output/dense/Tensordot/GatherV2/axis", "op": "Const", "attr": {"value": {"tensor": {"dtype": "DT_INT32", "tensorShape": {}}}, "dtype": {"type": "DT_INT32"}}}, {"name": "StatefulPartitionedCall/tf_bert_for_sequence_classification/bert/encoder/layer_._10/attention/output/dense/Tensordot/Const_2", "op": "Const", "attr": {"value": {"tensor": {"dtype": "DT_INT32", "tensorShape": {"dim": [{"size": "1"}]}}}, "dtype": {"type": "DT_INT32"}}}, {"name": "StatefulPartitionedCall/tf_bert_for_sequence_classification/bert/encoder/layer_._10/attention/output/dense/Tensordot/concat_1/axis", "op": "Const", "attr": {"value": {"tensor": {"dtype": "DT_INT32", "tensorShape": {}}}, "dtype": {"type": "DT_INT32"}}}, {"name": "StatefulPartitionedCall/tf_bert_for_sequence_classification/bert/encoder/layer_._10/attention/output/dense/BiasAdd/ReadVariableOp", "op": "Const", "attr": {"value": {"tensor": {"dtype": "DT_FLOAT", "tensorShape": {"dim": [{"size": "768"}]}}}, "dtype": {"type": "DT_FLOAT"}}}, {"name": "StatefulPartitionedCall/tf_bert_for_sequence_classification/bert/encoder/layer_._9/output/LayerNorm/batchnorm/ReadVariableOp", "op": "Const", "attr": {"value": {"tensor": {"dtype": "DT_FLOAT", "tensorShape": {"dim": [{"size": "768"}]}}}, "dtype": {"type": "DT_FLOAT"}}}, {"name": "StatefulPartitionedCall/tf_bert_for_sequence_classification/bert/encoder/layer_._9/output/dense/Tensordot/Const", "op": "Const", "attr": {"value": {"tensor": {"dtype": "DT_INT32", "tensorShape": {"dim": [{"size": "1"}]}}}, "dtype": {"type": "DT_INT32"}}}, {"name": "StatefulPartitionedCall/tf_bert_for_sequence_classification/bert/encoder/layer_._9/output/dense/Tensordot/axes", "op": "Const", "attr": {"value": {"tensor": {"dtype": "DT_INT32", "tensorShape": {"dim": [{"size": "1"}]}}}, "dtype": {"type": "DT_INT32"}}}, {"name": "StatefulPartitionedCall/tf_bert_for_sequence_classification/bert/encoder/layer_._9/output/dense/Tensordot/GatherV2_1/axis", "op": "Const", "attr": {"value": {"tensor": {"dtype": "DT_INT32", "tensorShape": {}}}, "dtype": {"type": "DT_INT32"}}}, {"name": "StatefulPartitionedCall/tf_bert_for_sequence_classification/bert/encoder/layer_._9/output/dense/Tensordot/Const_1", "op": "Const", "attr": {"value": {"tensor": {"dtype": "DT_INT32", "tensorShape": {"dim": [{"size": "1"}]}}}, "dtype": {"type": "DT_INT32"}}}, {"name": "StatefulPartitionedCall/tf_bert_for_sequence_classification/bert/encoder/layer_._9/output/dense/Tensordot/ReadVariableOp", "op": "Const", "attr": {"value": {"tensor": {"dtype": "DT_FLOAT", "tensorShape": {"dim": [{"size": "3072"}, {"size": "768"}]}}}, "dtype": {"type": "DT_FLOAT"}}}, {"name": "StatefulPartitionedCall/tf_bert_for_sequence_classification/bert/encoder/layer_._9/intermediate/Gelu/mul/x", "op": "Const", "attr": {"value": {"tensor": {"dtype": "DT_FLOAT", "tensorShape": {}}}, "dtype": {"type": "DT_FLOAT"}}}, {"name": "StatefulPartitionedCall/tf_bert_for_sequence_classification/bert/encoder/layer_._9/intermediate/Gelu/add/x", "op": "Const", "attr": {"value": {"tensor": {"dtype": "DT_FLOAT", "tensorShape": {}}}, "dtype": {"type": "DT_FLOAT"}}}, {"name": "StatefulPartitionedCall/tf_bert_for_sequence_classification/bert/encoder/layer_._9/intermediate/dense/Tensordot/Const", "op": "Const", "attr": {"value": {"tensor": {"dtype": "DT_INT32", "tensorShape": {"dim": [{"size": "1"}]}}}, "dtype": {"type": "DT_INT32"}}}, {"name": "StatefulPartitionedCall/tf_bert_for_sequence_classification/bert/encoder/layer_._9/intermediate/dense/Tensordot/axes", "op": "Const", "attr": {"value": {"tensor": {"dtype": "DT_INT32", "tensorShape": {"dim": [{"size": "1"}]}}}, "dtype": {"type": "DT_INT32"}}}, {"name": "StatefulPartitionedCall/tf_bert_for_sequence_classification/bert/encoder/layer_._9/intermediate/dense/Tensordot/GatherV2_1/axis", "op": "Const", "attr": {"value": {"tensor": {"dtype": "DT_INT32", "tensorShape": {}}}, "dtype": {"type": "DT_INT32"}}}, {"name": "StatefulPartitionedCall/tf_bert_for_sequence_classification/bert/encoder/layer_._9/intermediate/dense/Tensordot/Const_1", "op": "Const", "attr": {"value": {"tensor": {"dtype": "DT_INT32", "tensorShape": {"dim": [{"size": "1"}]}}}, "dtype": {"type": "DT_INT32"}}}, {"name": "StatefulPartitionedCall/tf_bert_for_sequence_classification/bert/encoder/layer_._9/intermediate/dense/Tensordot/ReadVariableOp", "op": "Const", "attr": {"value": {"tensor": {"dtype": "DT_FLOAT", "tensorShape": {"dim": [{"size": "768"}, {"size": "3072"}]}}}, "dtype": {"type": "DT_FLOAT"}}}, {"name": "StatefulPartitionedCall/tf_bert_for_sequence_classification/bert/encoder/layer_._9/intermediate/dense/Tensordot/free", "op": "Const", "attr": {"value": {"tensor": {"dtype": "DT_INT32", "tensorShape": {"dim": [{"size": "2"}]}}}, "dtype": {"type": "DT_INT32"}}}, {"name": "StatefulPartitionedCall/tf_bert_for_sequence_classification/bert/encoder/layer_._9/intermediate/dense/Tensordot/GatherV2/axis", "op": "Const", "attr": {"value": {"tensor": {"dtype": "DT_INT32", "tensorShape": {}}}, "dtype": {"type": "DT_INT32"}}}, {"name": "StatefulPartitionedCall/tf_bert_for_sequence_classification/bert/encoder/layer_._9/intermediate/dense/Tensordot/Const_2", "op": "Const", "attr": {"value": {"tensor": {"dtype": "DT_INT32", "tensorShape": {"dim": [{"size": "1"}]}}}, "dtype": {"type": "DT_INT32"}}}, {"name": "StatefulPartitionedCall/tf_bert_for_sequence_classification/bert/encoder/layer_._9/intermediate/dense/Tensordot/concat_1/axis", "op": "Const", "attr": {"value": {"tensor": {"dtype": "DT_INT32", "tensorShape": {}}}, "dtype": {"type": "DT_INT32"}}}, {"name": "StatefulPartitionedCall/tf_bert_for_sequence_classification/bert/encoder/layer_._9/intermediate/dense/BiasAdd/ReadVariableOp", "op": "Const", "attr": {"value": {"tensor": {"dtype": "DT_FLOAT", "tensorShape": {"dim": [{"size": "3072"}]}}}, "dtype": {"type": "DT_FLOAT"}}}, {"name": "ConstantFolding/StatefulPartitionedCall/tf_bert_for_sequence_classification/bert/encoder/layer_._9/intermediate/Gelu/truediv_recip", "op": "Const", "attr": {"value": {"tensor": {"dtype": "DT_FLOAT", "tensorShape": {}}}, "dtype": {"type": "DT_FLOAT"}}}, {"name": "StatefulPartitionedCall/tf_bert_for_sequence_classification/bert/encoder/layer_._9/output/dense/Tensordot/free", "op": "Const", "attr": {"value": {"tensor": {"dtype": "DT_INT32", "tensorShape": {"dim": [{"size": "2"}]}}}, "dtype": {"type": "DT_INT32"}}}, {"name": "StatefulPartitionedCall/tf_bert_for_sequence_classification/bert/encoder/layer_._9/output/dense/Tensordot/GatherV2/axis", "op": "Const", "attr": {"value": {"tensor": {"dtype": "DT_INT32", "tensorShape": {}}}, "dtype": {"type": "DT_INT32"}}}, {"name": "StatefulPartitionedCall/tf_bert_for_sequence_classification/bert/encoder/layer_._9/output/dense/Tensordot/Const_2", "op": "Const", "attr": {"value": {"tensor": {"dtype": "DT_INT32", "tensorShape": {"dim": [{"size": "1"}]}}}, "dtype": {"type": "DT_INT32"}}}, {"name": "StatefulPartitionedCall/tf_bert_for_sequence_classification/bert/encoder/layer_._9/output/dense/Tensordot/concat_1/axis", "op": "Const", "attr": {"value": {"tensor": {"dtype": "DT_INT32", "tensorShape": {}}}, "dtype": {"type": "DT_INT32"}}}, {"name": "StatefulPartitionedCall/tf_bert_for_sequence_classification/bert/encoder/layer_._9/output/dense/BiasAdd/ReadVariableOp", "op": "Const", "attr": {"value": {"tensor": {"dtype": "DT_FLOAT", "tensorShape": {"dim": [{"size": "768"}]}}}, "dtype": {"type": "DT_FLOAT"}}}, {"name": "StatefulPartitionedCall/tf_bert_for_sequence_classification/bert/encoder/layer_._9/attention/output/LayerNorm/batchnorm/ReadVariableOp", "op": "Const", "attr": {"value": {"tensor": {"dtype": "DT_FLOAT", "tensorShape": {"dim": [{"size": "768"}]}}}, "dtype": {"type": "DT_FLOAT"}}}, {"name": "StatefulPartitionedCall/tf_bert_for_sequence_classification/bert/encoder/layer_._9/attention/output/dense/Tensordot/Const", "op": "Const", "attr": {"value": {"tensor": {"dtype": "DT_INT32", "tensorShape": {"dim": [{"size": "1"}]}}}, "dtype": {"type": "DT_INT32"}}}, {"name": "StatefulPartitionedCall/tf_bert_for_sequence_classification/bert/encoder/layer_._9/attention/output/dense/Tensordot/axes", "op": "Const", "attr": {"value": {"tensor": {"dtype": "DT_INT32", "tensorShape": {"dim": [{"size": "1"}]}}}, "dtype": {"type": "DT_INT32"}}}, {"name": "StatefulPartitionedCall/tf_bert_for_sequence_classification/bert/encoder/layer_._9/attention/output/dense/Tensordot/GatherV2_1/axis", "op": "Const", "attr": {"value": {"tensor": {"dtype": "DT_INT32", "tensorShape": {}}}, "dtype": {"type": "DT_INT32"}}}, {"name": "StatefulPartitionedCall/tf_bert_for_sequence_classification/bert/encoder/layer_._9/attention/output/dense/Tensordot/Const_1", "op": "Const", "attr": {"value": {"tensor": {"dtype": "DT_INT32", "tensorShape": {"dim": [{"size": "1"}]}}}, "dtype": {"type": "DT_INT32"}}}, {"name": "StatefulPartitionedCall/tf_bert_for_sequence_classification/bert/encoder/layer_._9/attention/output/dense/Tensordot/ReadVariableOp", "op": "Const", "attr": {"value": {"tensor": {"dtype": "DT_FLOAT", "tensorShape": {"dim": [{"size": "768"}, {"size": "768"}]}}}, "dtype": {"type": "DT_FLOAT"}}}, {"name": "StatefulPartitionedCall/tf_bert_for_sequence_classification/bert/encoder/layer_._9/attention/self/query/Tensordot/Const", "op": "Const", "attr": {"value": {"tensor": {"dtype": "DT_INT32", "tensorShape": {"dim": [{"size": "1"}]}}}, "dtype": {"type": "DT_INT32"}}}, {"name": "StatefulPartitionedCall/tf_bert_for_sequence_classification/bert/encoder/layer_._9/attention/self/query/Tensordot/axes", "op": "Const", "attr": {"value": {"tensor": {"dtype": "DT_INT32", "tensorShape": {"dim": [{"size": "1"}]}}}, "dtype": {"type": "DT_INT32"}}}, {"name": "StatefulPartitionedCall/tf_bert_for_sequence_classification/bert/encoder/layer_._9/attention/self/query/Tensordot/GatherV2_1/axis", "op": "Const", "attr": {"value": {"tensor": {"dtype": "DT_INT32", "tensorShape": {}}}, "dtype": {"type": "DT_INT32"}}}, {"name": "StatefulPartitionedCall/tf_bert_for_sequence_classification/bert/encoder/layer_._9/attention/self/query/Tensordot/Const_1", "op": "Const", "attr": {"value": {"tensor": {"dtype": "DT_INT32", "tensorShape": {"dim": [{"size": "1"}]}}}, "dtype": {"type": "DT_INT32"}}}, {"name": "StatefulPartitionedCall/tf_bert_for_sequence_classification/bert/encoder/layer_._9/attention/self/query/Tensordot/ReadVariableOp", "op": "Const", "attr": {"value": {"tensor": {"dtype": "DT_FLOAT", "tensorShape": {"dim": [{"size": "768"}, {"size": "768"}]}}}, "dtype": {"type": "DT_FLOAT"}}}, {"name": "StatefulPartitionedCall/tf_bert_for_sequence_classification/bert/encoder/layer_._9/attention/self/query/Tensordot/free", "op": "Const", "attr": {"value": {"tensor": {"dtype": "DT_INT32", "tensorShape": {"dim": [{"size": "2"}]}}}, "dtype": {"type": "DT_INT32"}}}, {"name": "StatefulPartitionedCall/tf_bert_for_sequence_classification/bert/encoder/layer_._9/attention/self/query/Tensordot/GatherV2/axis", "op": "Const", "attr": {"value": {"tensor": {"dtype": "DT_INT32", "tensorShape": {}}}, "dtype": {"type": "DT_INT32"}}}, {"name": "StatefulPartitionedCall/tf_bert_for_sequence_classification/bert/encoder/layer_._9/attention/self/query/Tensordot/Const_2", "op": "Const", "attr": {"value": {"tensor": {"dtype": "DT_INT32", "tensorShape": {"dim": [{"size": "1"}]}}}, "dtype": {"type": "DT_INT32"}}}, {"name": "StatefulPartitionedCall/tf_bert_for_sequence_classification/bert/encoder/layer_._9/attention/self/query/Tensordot/concat_1/axis", "op": "Const", "attr": {"value": {"tensor": {"dtype": "DT_INT32", "tensorShape": {}}}, "dtype": {"type": "DT_INT32"}}}, {"name": "StatefulPartitionedCall/tf_bert_for_sequence_classification/bert/encoder/layer_._9/attention/self/query/BiasAdd/ReadVariableOp", "op": "Const", "attr": {"value": {"tensor": {"dtype": "DT_FLOAT", "tensorShape": {"dim": [{"size": "768"}]}}}, "dtype": {"type": "DT_FLOAT"}}}, {"name": "StatefulPartitionedCall/tf_bert_for_sequence_classification/bert/encoder/layer_._9/attention/self/Reshape_2/shape/1", "op": "Const", "attr": {"value": {"tensor": {"dtype": "DT_INT32", "tensorShape": {}}}, "dtype": {"type": "DT_INT32"}}}, {"name": "StatefulPartitionedCall/tf_bert_for_sequence_classification/bert/encoder/layer_._9/attention/self/Reshape_2/shape/2", "op": "Const", "attr": {"value": {"tensor": {"dtype": "DT_INT32", "tensorShape": {}}}, "dtype": {"type": "DT_INT32"}}}, {"name": "StatefulPartitionedCall/tf_bert_for_sequence_classification/bert/encoder/layer_._9/attention/self/Reshape_2/shape/3", "op": "Const", "attr": {"value": {"tensor": {"dtype": "DT_INT32", "tensorShape": {}}}, "dtype": {"type": "DT_INT32"}}}, {"name": "StatefulPartitionedCall/tf_bert_for_sequence_classification/bert/encoder/layer_._9/attention/self/transpose_2/perm", "op": "Const", "attr": {"value": {"tensor": {"dtype": "DT_INT32", "tensorShape": {"dim": [{"size": "4"}]}}}, "dtype": {"type": "DT_INT32"}}}, {"name": "StatefulPartitionedCall/tf_bert_for_sequence_classification/bert/encoder/layer_._9/attention/self/key/Tensordot/Const", "op": "Const", "attr": {"value": {"tensor": {"dtype": "DT_INT32", "tensorShape": {"dim": [{"size": "1"}]}}}, "dtype": {"type": "DT_INT32"}}}, {"name": "StatefulPartitionedCall/tf_bert_for_sequence_classification/bert/encoder/layer_._9/attention/self/key/Tensordot/axes", "op": "Const", "attr": {"value": {"tensor": {"dtype": "DT_INT32", "tensorShape": {"dim": [{"size": "1"}]}}}, "dtype": {"type": "DT_INT32"}}}, {"name": "StatefulPartitionedCall/tf_bert_for_sequence_classification/bert/encoder/layer_._9/attention/self/key/Tensordot/GatherV2_1/axis", "op": "Const", "attr": {"value": {"tensor": {"dtype": "DT_INT32", "tensorShape": {}}}, "dtype": {"type": "DT_INT32"}}}, {"name": "StatefulPartitionedCall/tf_bert_for_sequence_classification/bert/encoder/layer_._9/attention/self/key/Tensordot/Const_1", "op": "Const", "attr": {"value": {"tensor": {"dtype": "DT_INT32", "tensorShape": {"dim": [{"size": "1"}]}}}, "dtype": {"type": "DT_INT32"}}}, {"name": "StatefulPartitionedCall/tf_bert_for_sequence_classification/bert/encoder/layer_._9/attention/self/key/Tensordot/ReadVariableOp", "op": "Const", "attr": {"value": {"tensor": {"dtype": "DT_FLOAT", "tensorShape": {"dim": [{"size": "768"}, {"size": "768"}]}}}, "dtype": {"type": "DT_FLOAT"}}}, {"name": "StatefulPartitionedCall/tf_bert_for_sequence_classification/bert/encoder/layer_._9/attention/self/key/Tensordot/free", "op": "Const", "attr": {"value": {"tensor": {"dtype": "DT_INT32", "tensorShape": {"dim": [{"size": "2"}]}}}, "dtype": {"type": "DT_INT32"}}}, {"name": "StatefulPartitionedCall/tf_bert_for_sequence_classification/bert/encoder/layer_._9/attention/self/key/Tensordot/GatherV2/axis", "op": "Const", "attr": {"value": {"tensor": {"dtype": "DT_INT32", "tensorShape": {}}}, "dtype": {"type": "DT_INT32"}}}, {"name": "StatefulPartitionedCall/tf_bert_for_sequence_classification/bert/encoder/layer_._9/attention/self/key/Tensordot/Const_2", "op": "Const", "attr": {"value": {"tensor": {"dtype": "DT_INT32", "tensorShape": {"dim": [{"size": "1"}]}}}, "dtype": {"type": "DT_INT32"}}}, {"name": "StatefulPartitionedCall/tf_bert_for_sequence_classification/bert/encoder/layer_._9/attention/self/key/Tensordot/concat_1/axis", "op": "Const", "attr": {"value": {"tensor": {"dtype": "DT_INT32", "tensorShape": {}}}, "dtype": {"type": "DT_INT32"}}}, {"name": "StatefulPartitionedCall/tf_bert_for_sequence_classification/bert/encoder/layer_._9/attention/self/key/BiasAdd/ReadVariableOp", "op": "Const", "attr": {"value": {"tensor": {"dtype": "DT_FLOAT", "tensorShape": {"dim": [{"size": "768"}]}}}, "dtype": {"type": "DT_FLOAT"}}}, {"name": "StatefulPartitionedCall/tf_bert_for_sequence_classification/bert/encoder/layer_._9/attention/self/Reshape/shape/1", "op": "Const", "attr": {"value": {"tensor": {"dtype": "DT_INT32", "tensorShape": {}}}, "dtype": {"type": "DT_INT32"}}}, {"name": "StatefulPartitionedCall/tf_bert_for_sequence_classification/bert/encoder/layer_._9/attention/self/Reshape/shape/2", "op": "Const", "attr": {"value": {"tensor": {"dtype": "DT_INT32", "tensorShape": {}}}, "dtype": {"type": "DT_INT32"}}}, {"name": "StatefulPartitionedCall/tf_bert_for_sequence_classification/bert/encoder/layer_._9/attention/self/Reshape/shape/3", "op": "Const", "attr": {"value": {"tensor": {"dtype": "DT_INT32", "tensorShape": {}}}, "dtype": {"type": "DT_INT32"}}}, {"name": "StatefulPartitionedCall/tf_bert_for_sequence_classification/bert/encoder/layer_._9/attention/self/transpose/perm", "op": "Const", "attr": {"value": {"tensor": {"dtype": "DT_INT32", "tensorShape": {"dim": [{"size": "4"}]}}}, "dtype": {"type": "DT_INT32"}}}, {"name": "ConstantFolding/StatefulPartitionedCall/tf_bert_for_sequence_classification/bert/encoder/layer_._9/attention/self/truediv_recip", "op": "Const", "attr": {"value": {"tensor": {"dtype": "DT_FLOAT", "tensorShape": {}}}, "dtype": {"type": "DT_FLOAT"}}}, {"name": "StatefulPartitionedCall/tf_bert_for_sequence_classification/bert/encoder/layer_._9/attention/self/add_1/y", "op": "Const", "attr": {"value": {"tensor": {"dtype": "DT_FLOAT", "tensorShape": {}}}, "dtype": {"type": "DT_FLOAT"}}}, {"name": "StatefulPartitionedCall/tf_bert_for_sequence_classification/bert/encoder/layer_._9/attention/self/value/Tensordot/Const", "op": "Const", "attr": {"value": {"tensor": {"dtype": "DT_INT32", "tensorShape": {"dim": [{"size": "1"}]}}}, "dtype": {"type": "DT_INT32"}}}, {"name": "StatefulPartitionedCall/tf_bert_for_sequence_classification/bert/encoder/layer_._9/attention/self/value/Tensordot/axes", "op": "Const", "attr": {"value": {"tensor": {"dtype": "DT_INT32", "tensorShape": {"dim": [{"size": "1"}]}}}, "dtype": {"type": "DT_INT32"}}}, {"name": "StatefulPartitionedCall/tf_bert_for_sequence_classification/bert/encoder/layer_._9/attention/self/value/Tensordot/GatherV2_1/axis", "op": "Const", "attr": {"value": {"tensor": {"dtype": "DT_INT32", "tensorShape": {}}}, "dtype": {"type": "DT_INT32"}}}, {"name": "StatefulPartitionedCall/tf_bert_for_sequence_classification/bert/encoder/layer_._9/attention/self/value/Tensordot/Const_1", "op": "Const", "attr": {"value": {"tensor": {"dtype": "DT_INT32", "tensorShape": {"dim": [{"size": "1"}]}}}, "dtype": {"type": "DT_INT32"}}}, {"name": "StatefulPartitionedCall/tf_bert_for_sequence_classification/bert/encoder/layer_._9/attention/self/value/Tensordot/ReadVariableOp", "op": "Const", "attr": {"value": {"tensor": {"dtype": "DT_FLOAT", "tensorShape": {"dim": [{"size": "768"}, {"size": "768"}]}}}, "dtype": {"type": "DT_FLOAT"}}}, {"name": "StatefulPartitionedCall/tf_bert_for_sequence_classification/bert/encoder/layer_._9/attention/self/value/Tensordot/free", "op": "Const", "attr": {"value": {"tensor": {"dtype": "DT_INT32", "tensorShape": {"dim": [{"size": "2"}]}}}, "dtype": {"type": "DT_INT32"}}}, {"name": "StatefulPartitionedCall/tf_bert_for_sequence_classification/bert/encoder/layer_._9/attention/self/value/Tensordot/GatherV2/axis", "op": "Const", "attr": {"value": {"tensor": {"dtype": "DT_INT32", "tensorShape": {}}}, "dtype": {"type": "DT_INT32"}}}, {"name": "StatefulPartitionedCall/tf_bert_for_sequence_classification/bert/encoder/layer_._9/attention/self/value/Tensordot/Const_2", "op": "Const", "attr": {"value": {"tensor": {"dtype": "DT_INT32", "tensorShape": {"dim": [{"size": "1"}]}}}, "dtype": {"type": "DT_INT32"}}}, {"name": "StatefulPartitionedCall/tf_bert_for_sequence_classification/bert/encoder/layer_._9/attention/self/value/Tensordot/concat_1/axis", "op": "Const", "attr": {"value": {"tensor": {"dtype": "DT_INT32", "tensorShape": {}}}, "dtype": {"type": "DT_INT32"}}}, {"name": "StatefulPartitionedCall/tf_bert_for_sequence_classification/bert/encoder/layer_._9/attention/self/value/BiasAdd/ReadVariableOp", "op": "Const", "attr": {"value": {"tensor": {"dtype": "DT_FLOAT", "tensorShape": {"dim": [{"size": "768"}]}}}, "dtype": {"type": "DT_FLOAT"}}}, {"name": "StatefulPartitionedCall/tf_bert_for_sequence_classification/bert/encoder/layer_._9/attention/self/Reshape_1/shape/1", "op": "Const", "attr": {"value": {"tensor": {"dtype": "DT_INT32", "tensorShape": {}}}, "dtype": {"type": "DT_INT32"}}}, {"name": "StatefulPartitionedCall/tf_bert_for_sequence_classification/bert/encoder/layer_._9/attention/self/Reshape_1/shape/2", "op": "Const", "attr": {"value": {"tensor": {"dtype": "DT_INT32", "tensorShape": {}}}, "dtype": {"type": "DT_INT32"}}}, {"name": "StatefulPartitionedCall/tf_bert_for_sequence_classification/bert/encoder/layer_._9/attention/self/Reshape_1/shape/3", "op": "Const", "attr": {"value": {"tensor": {"dtype": "DT_INT32", "tensorShape": {}}}, "dtype": {"type": "DT_INT32"}}}, {"name": "StatefulPartitionedCall/tf_bert_for_sequence_classification/bert/encoder/layer_._9/attention/self/transpose_1/perm", "op": "Const", "attr": {"value": {"tensor": {"dtype": "DT_INT32", "tensorShape": {"dim": [{"size": "4"}]}}}, "dtype": {"type": "DT_INT32"}}}, {"name": "StatefulPartitionedCall/tf_bert_for_sequence_classification/bert/encoder/layer_._9/attention/self/transpose_3/perm", "op": "Const", "attr": {"value": {"tensor": {"dtype": "DT_INT32", "tensorShape": {"dim": [{"size": "4"}]}}}, "dtype": {"type": "DT_INT32"}}}, {"name": "StatefulPartitionedCall/tf_bert_for_sequence_classification/bert/encoder/layer_._9/attention/self/strided_slice/stack", "op": "Const", "attr": {"value": {"tensor": {"dtype": "DT_INT32", "tensorShape": {"dim": [{"size": "1"}]}}}, "dtype": {"type": "DT_INT32"}}}, {"name": "StatefulPartitionedCall/tf_bert_for_sequence_classification/bert/encoder/layer_._9/attention/self/strided_slice/stack_1", "op": "Const", "attr": {"value": {"tensor": {"dtype": "DT_INT32", "tensorShape": {"dim": [{"size": "1"}]}}}, "dtype": {"type": "DT_INT32"}}}, {"name": "StatefulPartitionedCall/tf_bert_for_sequence_classification/bert/encoder/layer_._9/attention/self/strided_slice/stack_2", "op": "Const", "attr": {"value": {"tensor": {"dtype": "DT_INT32", "tensorShape": {"dim": [{"size": "1"}]}}}, "dtype": {"type": "DT_INT32"}}}, {"name": "StatefulPartitionedCall/tf_bert_for_sequence_classification/bert/encoder/layer_._9/attention/self/Reshape_3/shape/1", "op": "Const", "attr": {"value": {"tensor": {"dtype": "DT_INT32", "tensorShape": {}}}, "dtype": {"type": "DT_INT32"}}}, {"name": "StatefulPartitionedCall/tf_bert_for_sequence_classification/bert/encoder/layer_._9/attention/self/Reshape_3/shape/2", "op": "Const", "attr": {"value": {"tensor": {"dtype": "DT_INT32", "tensorShape": {}}}, "dtype": {"type": "DT_INT32"}}}, {"name": "StatefulPartitionedCall/tf_bert_for_sequence_classification/bert/encoder/layer_._9/attention/output/dense/Tensordot/free", "op": "Const", "attr": {"value": {"tensor": {"dtype": "DT_INT32", "tensorShape": {"dim": [{"size": "2"}]}}}, "dtype": {"type": "DT_INT32"}}}, {"name": "StatefulPartitionedCall/tf_bert_for_sequence_classification/bert/encoder/layer_._9/attention/output/dense/Tensordot/GatherV2/axis", "op": "Const", "attr": {"value": {"tensor": {"dtype": "DT_INT32", "tensorShape": {}}}, "dtype": {"type": "DT_INT32"}}}, {"name": "StatefulPartitionedCall/tf_bert_for_sequence_classification/bert/encoder/layer_._9/attention/output/dense/Tensordot/Const_2", "op": "Const", "attr": {"value": {"tensor": {"dtype": "DT_INT32", "tensorShape": {"dim": [{"size": "1"}]}}}, "dtype": {"type": "DT_INT32"}}}, {"name": "StatefulPartitionedCall/tf_bert_for_sequence_classification/bert/encoder/layer_._9/attention/output/dense/Tensordot/concat_1/axis", "op": "Const", "attr": {"value": {"tensor": {"dtype": "DT_INT32", "tensorShape": {}}}, "dtype": {"type": "DT_INT32"}}}, {"name": "StatefulPartitionedCall/tf_bert_for_sequence_classification/bert/encoder/layer_._9/attention/output/dense/BiasAdd/ReadVariableOp", "op": "Const", "attr": {"value": {"tensor": {"dtype": "DT_FLOAT", "tensorShape": {"dim": [{"size": "768"}]}}}, "dtype": {"type": "DT_FLOAT"}}}, {"name": "StatefulPartitionedCall/tf_bert_for_sequence_classification/bert/encoder/layer_._8/output/LayerNorm/batchnorm/ReadVariableOp", "op": "Const", "attr": {"value": {"tensor": {"dtype": "DT_FLOAT", "tensorShape": {"dim": [{"size": "768"}]}}}, "dtype": {"type": "DT_FLOAT"}}}, {"name": "StatefulPartitionedCall/tf_bert_for_sequence_classification/bert/encoder/layer_._8/output/dense/Tensordot/Const", "op": "Const", "attr": {"value": {"tensor": {"dtype": "DT_INT32", "tensorShape": {"dim": [{"size": "1"}]}}}, "dtype": {"type": "DT_INT32"}}}, {"name": "StatefulPartitionedCall/tf_bert_for_sequence_classification/bert/encoder/layer_._8/output/dense/Tensordot/axes", "op": "Const", "attr": {"value": {"tensor": {"dtype": "DT_INT32", "tensorShape": {"dim": [{"size": "1"}]}}}, "dtype": {"type": "DT_INT32"}}}, {"name": "StatefulPartitionedCall/tf_bert_for_sequence_classification/bert/encoder/layer_._8/output/dense/Tensordot/GatherV2_1/axis", "op": "Const", "attr": {"value": {"tensor": {"dtype": "DT_INT32", "tensorShape": {}}}, "dtype": {"type": "DT_INT32"}}}, {"name": "StatefulPartitionedCall/tf_bert_for_sequence_classification/bert/encoder/layer_._8/output/dense/Tensordot/Const_1", "op": "Const", "attr": {"value": {"tensor": {"dtype": "DT_INT32", "tensorShape": {"dim": [{"size": "1"}]}}}, "dtype": {"type": "DT_INT32"}}}, {"name": "StatefulPartitionedCall/tf_bert_for_sequence_classification/bert/encoder/layer_._8/output/dense/Tensordot/ReadVariableOp", "op": "Const", "attr": {"value": {"tensor": {"dtype": "DT_FLOAT", "tensorShape": {"dim": [{"size": "3072"}, {"size": "768"}]}}}, "dtype": {"type": "DT_FLOAT"}}}, {"name": "StatefulPartitionedCall/tf_bert_for_sequence_classification/bert/encoder/layer_._8/intermediate/Gelu/mul/x", "op": "Const", "attr": {"value": {"tensor": {"dtype": "DT_FLOAT", "tensorShape": {}}}, "dtype": {"type": "DT_FLOAT"}}}, {"name": "StatefulPartitionedCall/tf_bert_for_sequence_classification/bert/encoder/layer_._8/intermediate/Gelu/add/x", "op": "Const", "attr": {"value": {"tensor": {"dtype": "DT_FLOAT", "tensorShape": {}}}, "dtype": {"type": "DT_FLOAT"}}}, {"name": "StatefulPartitionedCall/tf_bert_for_sequence_classification/bert/encoder/layer_._8/intermediate/dense/Tensordot/Const", "op": "Const", "attr": {"value": {"tensor": {"dtype": "DT_INT32", "tensorShape": {"dim": [{"size": "1"}]}}}, "dtype": {"type": "DT_INT32"}}}, {"name": "StatefulPartitionedCall/tf_bert_for_sequence_classification/bert/encoder/layer_._8/intermediate/dense/Tensordot/axes", "op": "Const", "attr": {"value": {"tensor": {"dtype": "DT_INT32", "tensorShape": {"dim": [{"size": "1"}]}}}, "dtype": {"type": "DT_INT32"}}}, {"name": "StatefulPartitionedCall/tf_bert_for_sequence_classification/bert/encoder/layer_._8/intermediate/dense/Tensordot/GatherV2_1/axis", "op": "Const", "attr": {"value": {"tensor": {"dtype": "DT_INT32", "tensorShape": {}}}, "dtype": {"type": "DT_INT32"}}}, {"name": "StatefulPartitionedCall/tf_bert_for_sequence_classification/bert/encoder/layer_._8/intermediate/dense/Tensordot/Const_1", "op": "Const", "attr": {"value": {"tensor": {"dtype": "DT_INT32", "tensorShape": {"dim": [{"size": "1"}]}}}, "dtype": {"type": "DT_INT32"}}}, {"name": "StatefulPartitionedCall/tf_bert_for_sequence_classification/bert/encoder/layer_._8/intermediate/dense/Tensordot/ReadVariableOp", "op": "Const", "attr": {"value": {"tensor": {"dtype": "DT_FLOAT", "tensorShape": {"dim": [{"size": "768"}, {"size": "3072"}]}}}, "dtype": {"type": "DT_FLOAT"}}}, {"name": "StatefulPartitionedCall/tf_bert_for_sequence_classification/bert/encoder/layer_._8/intermediate/dense/Tensordot/free", "op": "Const", "attr": {"value": {"tensor": {"dtype": "DT_INT32", "tensorShape": {"dim": [{"size": "2"}]}}}, "dtype": {"type": "DT_INT32"}}}, {"name": "StatefulPartitionedCall/tf_bert_for_sequence_classification/bert/encoder/layer_._8/intermediate/dense/Tensordot/GatherV2/axis", "op": "Const", "attr": {"value": {"tensor": {"dtype": "DT_INT32", "tensorShape": {}}}, "dtype": {"type": "DT_INT32"}}}, {"name": "StatefulPartitionedCall/tf_bert_for_sequence_classification/bert/encoder/layer_._8/intermediate/dense/Tensordot/Const_2", "op": "Const", "attr": {"value": {"tensor": {"dtype": "DT_INT32", "tensorShape": {"dim": [{"size": "1"}]}}}, "dtype": {"type": "DT_INT32"}}}, {"name": "StatefulPartitionedCall/tf_bert_for_sequence_classification/bert/encoder/layer_._8/intermediate/dense/Tensordot/concat_1/axis", "op": "Const", "attr": {"value": {"tensor": {"dtype": "DT_INT32", "tensorShape": {}}}, "dtype": {"type": "DT_INT32"}}}, {"name": "StatefulPartitionedCall/tf_bert_for_sequence_classification/bert/encoder/layer_._8/intermediate/dense/BiasAdd/ReadVariableOp", "op": "Const", "attr": {"value": {"tensor": {"dtype": "DT_FLOAT", "tensorShape": {"dim": [{"size": "3072"}]}}}, "dtype": {"type": "DT_FLOAT"}}}, {"name": "ConstantFolding/StatefulPartitionedCall/tf_bert_for_sequence_classification/bert/encoder/layer_._8/intermediate/Gelu/truediv_recip", "op": "Const", "attr": {"value": {"tensor": {"dtype": "DT_FLOAT", "tensorShape": {}}}, "dtype": {"type": "DT_FLOAT"}}}, {"name": "StatefulPartitionedCall/tf_bert_for_sequence_classification/bert/encoder/layer_._8/output/dense/Tensordot/free", "op": "Const", "attr": {"value": {"tensor": {"dtype": "DT_INT32", "tensorShape": {"dim": [{"size": "2"}]}}}, "dtype": {"type": "DT_INT32"}}}, {"name": "StatefulPartitionedCall/tf_bert_for_sequence_classification/bert/encoder/layer_._8/output/dense/Tensordot/GatherV2/axis", "op": "Const", "attr": {"value": {"tensor": {"dtype": "DT_INT32", "tensorShape": {}}}, "dtype": {"type": "DT_INT32"}}}, {"name": "StatefulPartitionedCall/tf_bert_for_sequence_classification/bert/encoder/layer_._8/output/dense/Tensordot/Const_2", "op": "Const", "attr": {"value": {"tensor": {"dtype": "DT_INT32", "tensorShape": {"dim": [{"size": "1"}]}}}, "dtype": {"type": "DT_INT32"}}}, {"name": "StatefulPartitionedCall/tf_bert_for_sequence_classification/bert/encoder/layer_._8/output/dense/Tensordot/concat_1/axis", "op": "Const", "attr": {"value": {"tensor": {"dtype": "DT_INT32", "tensorShape": {}}}, "dtype": {"type": "DT_INT32"}}}, {"name": "StatefulPartitionedCall/tf_bert_for_sequence_classification/bert/encoder/layer_._8/output/dense/BiasAdd/ReadVariableOp", "op": "Const", "attr": {"value": {"tensor": {"dtype": "DT_FLOAT", "tensorShape": {"dim": [{"size": "768"}]}}}, "dtype": {"type": "DT_FLOAT"}}}, {"name": "StatefulPartitionedCall/tf_bert_for_sequence_classification/bert/encoder/layer_._8/attention/output/LayerNorm/batchnorm/ReadVariableOp", "op": "Const", "attr": {"value": {"tensor": {"dtype": "DT_FLOAT", "tensorShape": {"dim": [{"size": "768"}]}}}, "dtype": {"type": "DT_FLOAT"}}}, {"name": "StatefulPartitionedCall/tf_bert_for_sequence_classification/bert/encoder/layer_._8/attention/output/dense/Tensordot/Const", "op": "Const", "attr": {"value": {"tensor": {"dtype": "DT_INT32", "tensorShape": {"dim": [{"size": "1"}]}}}, "dtype": {"type": "DT_INT32"}}}, {"name": "StatefulPartitionedCall/tf_bert_for_sequence_classification/bert/encoder/layer_._8/attention/output/dense/Tensordot/axes", "op": "Const", "attr": {"value": {"tensor": {"dtype": "DT_INT32", "tensorShape": {"dim": [{"size": "1"}]}}}, "dtype": {"type": "DT_INT32"}}}, {"name": "StatefulPartitionedCall/tf_bert_for_sequence_classification/bert/encoder/layer_._8/attention/output/dense/Tensordot/GatherV2_1/axis", "op": "Const", "attr": {"value": {"tensor": {"dtype": "DT_INT32", "tensorShape": {}}}, "dtype": {"type": "DT_INT32"}}}, {"name": "StatefulPartitionedCall/tf_bert_for_sequence_classification/bert/encoder/layer_._8/attention/output/dense/Tensordot/Const_1", "op": "Const", "attr": {"value": {"tensor": {"dtype": "DT_INT32", "tensorShape": {"dim": [{"size": "1"}]}}}, "dtype": {"type": "DT_INT32"}}}, {"name": "StatefulPartitionedCall/tf_bert_for_sequence_classification/bert/encoder/layer_._8/attention/output/dense/Tensordot/ReadVariableOp", "op": "Const", "attr": {"value": {"tensor": {"dtype": "DT_FLOAT", "tensorShape": {"dim": [{"size": "768"}, {"size": "768"}]}}}, "dtype": {"type": "DT_FLOAT"}}}, {"name": "StatefulPartitionedCall/tf_bert_for_sequence_classification/bert/encoder/layer_._8/attention/self/query/Tensordot/Const", "op": "Const", "attr": {"value": {"tensor": {"dtype": "DT_INT32", "tensorShape": {"dim": [{"size": "1"}]}}}, "dtype": {"type": "DT_INT32"}}}, {"name": "StatefulPartitionedCall/tf_bert_for_sequence_classification/bert/encoder/layer_._8/attention/self/query/Tensordot/axes", "op": "Const", "attr": {"value": {"tensor": {"dtype": "DT_INT32", "tensorShape": {"dim": [{"size": "1"}]}}}, "dtype": {"type": "DT_INT32"}}}, {"name": "StatefulPartitionedCall/tf_bert_for_sequence_classification/bert/encoder/layer_._8/attention/self/query/Tensordot/GatherV2_1/axis", "op": "Const", "attr": {"value": {"tensor": {"dtype": "DT_INT32", "tensorShape": {}}}, "dtype": {"type": "DT_INT32"}}}, {"name": "StatefulPartitionedCall/tf_bert_for_sequence_classification/bert/encoder/layer_._8/attention/self/query/Tensordot/Const_1", "op": "Const", "attr": {"value": {"tensor": {"dtype": "DT_INT32", "tensorShape": {"dim": [{"size": "1"}]}}}, "dtype": {"type": "DT_INT32"}}}, {"name": "StatefulPartitionedCall/tf_bert_for_sequence_classification/bert/encoder/layer_._8/attention/self/query/Tensordot/ReadVariableOp", "op": "Const", "attr": {"value": {"tensor": {"dtype": "DT_FLOAT", "tensorShape": {"dim": [{"size": "768"}, {"size": "768"}]}}}, "dtype": {"type": "DT_FLOAT"}}}, {"name": "StatefulPartitionedCall/tf_bert_for_sequence_classification/bert/encoder/layer_._8/attention/self/query/Tensordot/free", "op": "Const", "attr": {"value": {"tensor": {"dtype": "DT_INT32", "tensorShape": {"dim": [{"size": "2"}]}}}, "dtype": {"type": "DT_INT32"}}}, {"name": "StatefulPartitionedCall/tf_bert_for_sequence_classification/bert/encoder/layer_._8/attention/self/query/Tensordot/GatherV2/axis", "op": "Const", "attr": {"value": {"tensor": {"dtype": "DT_INT32", "tensorShape": {}}}, "dtype": {"type": "DT_INT32"}}}, {"name": "StatefulPartitionedCall/tf_bert_for_sequence_classification/bert/encoder/layer_._8/attention/self/query/Tensordot/Const_2", "op": "Const", "attr": {"value": {"tensor": {"dtype": "DT_INT32", "tensorShape": {"dim": [{"size": "1"}]}}}, "dtype": {"type": "DT_INT32"}}}, {"name": "StatefulPartitionedCall/tf_bert_for_sequence_classification/bert/encoder/layer_._8/attention/self/query/Tensordot/concat_1/axis", "op": "Const", "attr": {"value": {"tensor": {"dtype": "DT_INT32", "tensorShape": {}}}, "dtype": {"type": "DT_INT32"}}}, {"name": "StatefulPartitionedCall/tf_bert_for_sequence_classification/bert/encoder/layer_._8/attention/self/query/BiasAdd/ReadVariableOp", "op": "Const", "attr": {"value": {"tensor": {"dtype": "DT_FLOAT", "tensorShape": {"dim": [{"size": "768"}]}}}, "dtype": {"type": "DT_FLOAT"}}}, {"name": "StatefulPartitionedCall/tf_bert_for_sequence_classification/bert/encoder/layer_._8/attention/self/Reshape_2/shape/1", "op": "Const", "attr": {"value": {"tensor": {"dtype": "DT_INT32", "tensorShape": {}}}, "dtype": {"type": "DT_INT32"}}}, {"name": "StatefulPartitionedCall/tf_bert_for_sequence_classification/bert/encoder/layer_._8/attention/self/Reshape_2/shape/2", "op": "Const", "attr": {"value": {"tensor": {"dtype": "DT_INT32", "tensorShape": {}}}, "dtype": {"type": "DT_INT32"}}}, {"name": "StatefulPartitionedCall/tf_bert_for_sequence_classification/bert/encoder/layer_._8/attention/self/Reshape_2/shape/3", "op": "Const", "attr": {"value": {"tensor": {"dtype": "DT_INT32", "tensorShape": {}}}, "dtype": {"type": "DT_INT32"}}}, {"name": "StatefulPartitionedCall/tf_bert_for_sequence_classification/bert/encoder/layer_._8/attention/self/transpose_2/perm", "op": "Const", "attr": {"value": {"tensor": {"dtype": "DT_INT32", "tensorShape": {"dim": [{"size": "4"}]}}}, "dtype": {"type": "DT_INT32"}}}, {"name": "StatefulPartitionedCall/tf_bert_for_sequence_classification/bert/encoder/layer_._8/attention/self/key/Tensordot/Const", "op": "Const", "attr": {"value": {"tensor": {"dtype": "DT_INT32", "tensorShape": {"dim": [{"size": "1"}]}}}, "dtype": {"type": "DT_INT32"}}}, {"name": "StatefulPartitionedCall/tf_bert_for_sequence_classification/bert/encoder/layer_._8/attention/self/key/Tensordot/axes", "op": "Const", "attr": {"value": {"tensor": {"dtype": "DT_INT32", "tensorShape": {"dim": [{"size": "1"}]}}}, "dtype": {"type": "DT_INT32"}}}, {"name": "StatefulPartitionedCall/tf_bert_for_sequence_classification/bert/encoder/layer_._8/attention/self/key/Tensordot/GatherV2_1/axis", "op": "Const", "attr": {"value": {"tensor": {"dtype": "DT_INT32", "tensorShape": {}}}, "dtype": {"type": "DT_INT32"}}}, {"name": "StatefulPartitionedCall/tf_bert_for_sequence_classification/bert/encoder/layer_._8/attention/self/key/Tensordot/Const_1", "op": "Const", "attr": {"value": {"tensor": {"dtype": "DT_INT32", "tensorShape": {"dim": [{"size": "1"}]}}}, "dtype": {"type": "DT_INT32"}}}, {"name": "StatefulPartitionedCall/tf_bert_for_sequence_classification/bert/encoder/layer_._8/attention/self/key/Tensordot/ReadVariableOp", "op": "Const", "attr": {"value": {"tensor": {"dtype": "DT_FLOAT", "tensorShape": {"dim": [{"size": "768"}, {"size": "768"}]}}}, "dtype": {"type": "DT_FLOAT"}}}, {"name": "StatefulPartitionedCall/tf_bert_for_sequence_classification/bert/encoder/layer_._8/attention/self/key/Tensordot/free", "op": "Const", "attr": {"value": {"tensor": {"dtype": "DT_INT32", "tensorShape": {"dim": [{"size": "2"}]}}}, "dtype": {"type": "DT_INT32"}}}, {"name": "StatefulPartitionedCall/tf_bert_for_sequence_classification/bert/encoder/layer_._8/attention/self/key/Tensordot/GatherV2/axis", "op": "Const", "attr": {"value": {"tensor": {"dtype": "DT_INT32", "tensorShape": {}}}, "dtype": {"type": "DT_INT32"}}}, {"name": "StatefulPartitionedCall/tf_bert_for_sequence_classification/bert/encoder/layer_._8/attention/self/key/Tensordot/Const_2", "op": "Const", "attr": {"value": {"tensor": {"dtype": "DT_INT32", "tensorShape": {"dim": [{"size": "1"}]}}}, "dtype": {"type": "DT_INT32"}}}, {"name": "StatefulPartitionedCall/tf_bert_for_sequence_classification/bert/encoder/layer_._8/attention/self/key/Tensordot/concat_1/axis", "op": "Const", "attr": {"value": {"tensor": {"dtype": "DT_INT32", "tensorShape": {}}}, "dtype": {"type": "DT_INT32"}}}, {"name": "StatefulPartitionedCall/tf_bert_for_sequence_classification/bert/encoder/layer_._8/attention/self/key/BiasAdd/ReadVariableOp", "op": "Const", "attr": {"value": {"tensor": {"dtype": "DT_FLOAT", "tensorShape": {"dim": [{"size": "768"}]}}}, "dtype": {"type": "DT_FLOAT"}}}, {"name": "StatefulPartitionedCall/tf_bert_for_sequence_classification/bert/encoder/layer_._8/attention/self/Reshape/shape/1", "op": "Const", "attr": {"value": {"tensor": {"dtype": "DT_INT32", "tensorShape": {}}}, "dtype": {"type": "DT_INT32"}}}, {"name": "StatefulPartitionedCall/tf_bert_for_sequence_classification/bert/encoder/layer_._8/attention/self/Reshape/shape/2", "op": "Const", "attr": {"value": {"tensor": {"dtype": "DT_INT32", "tensorShape": {}}}, "dtype": {"type": "DT_INT32"}}}, {"name": "StatefulPartitionedCall/tf_bert_for_sequence_classification/bert/encoder/layer_._8/attention/self/Reshape/shape/3", "op": "Const", "attr": {"value": {"tensor": {"dtype": "DT_INT32", "tensorShape": {}}}, "dtype": {"type": "DT_INT32"}}}, {"name": "StatefulPartitionedCall/tf_bert_for_sequence_classification/bert/encoder/layer_._8/attention/self/transpose/perm", "op": "Const", "attr": {"value": {"tensor": {"dtype": "DT_INT32", "tensorShape": {"dim": [{"size": "4"}]}}}, "dtype": {"type": "DT_INT32"}}}, {"name": "ConstantFolding/StatefulPartitionedCall/tf_bert_for_sequence_classification/bert/encoder/layer_._8/attention/self/truediv_recip", "op": "Const", "attr": {"value": {"tensor": {"dtype": "DT_FLOAT", "tensorShape": {}}}, "dtype": {"type": "DT_FLOAT"}}}, {"name": "StatefulPartitionedCall/tf_bert_for_sequence_classification/bert/encoder/layer_._8/attention/self/add_1/y", "op": "Const", "attr": {"value": {"tensor": {"dtype": "DT_FLOAT", "tensorShape": {}}}, "dtype": {"type": "DT_FLOAT"}}}, {"name": "StatefulPartitionedCall/tf_bert_for_sequence_classification/bert/encoder/layer_._8/attention/self/value/Tensordot/Const", "op": "Const", "attr": {"value": {"tensor": {"dtype": "DT_INT32", "tensorShape": {"dim": [{"size": "1"}]}}}, "dtype": {"type": "DT_INT32"}}}, {"name": "StatefulPartitionedCall/tf_bert_for_sequence_classification/bert/encoder/layer_._8/attention/self/value/Tensordot/axes", "op": "Const", "attr": {"value": {"tensor": {"dtype": "DT_INT32", "tensorShape": {"dim": [{"size": "1"}]}}}, "dtype": {"type": "DT_INT32"}}}, {"name": "StatefulPartitionedCall/tf_bert_for_sequence_classification/bert/encoder/layer_._8/attention/self/value/Tensordot/GatherV2_1/axis", "op": "Const", "attr": {"value": {"tensor": {"dtype": "DT_INT32", "tensorShape": {}}}, "dtype": {"type": "DT_INT32"}}}, {"name": "StatefulPartitionedCall/tf_bert_for_sequence_classification/bert/encoder/layer_._8/attention/self/value/Tensordot/Const_1", "op": "Const", "attr": {"value": {"tensor": {"dtype": "DT_INT32", "tensorShape": {"dim": [{"size": "1"}]}}}, "dtype": {"type": "DT_INT32"}}}, {"name": "StatefulPartitionedCall/tf_bert_for_sequence_classification/bert/encoder/layer_._8/attention/self/value/Tensordot/ReadVariableOp", "op": "Const", "attr": {"value": {"tensor": {"dtype": "DT_FLOAT", "tensorShape": {"dim": [{"size": "768"}, {"size": "768"}]}}}, "dtype": {"type": "DT_FLOAT"}}}, {"name": "StatefulPartitionedCall/tf_bert_for_sequence_classification/bert/encoder/layer_._8/attention/self/value/Tensordot/free", "op": "Const", "attr": {"value": {"tensor": {"dtype": "DT_INT32", "tensorShape": {"dim": [{"size": "2"}]}}}, "dtype": {"type": "DT_INT32"}}}, {"name": "StatefulPartitionedCall/tf_bert_for_sequence_classification/bert/encoder/layer_._8/attention/self/value/Tensordot/GatherV2/axis", "op": "Const", "attr": {"value": {"tensor": {"dtype": "DT_INT32", "tensorShape": {}}}, "dtype": {"type": "DT_INT32"}}}, {"name": "StatefulPartitionedCall/tf_bert_for_sequence_classification/bert/encoder/layer_._8/attention/self/value/Tensordot/Const_2", "op": "Const", "attr": {"value": {"tensor": {"dtype": "DT_INT32", "tensorShape": {"dim": [{"size": "1"}]}}}, "dtype": {"type": "DT_INT32"}}}, {"name": "StatefulPartitionedCall/tf_bert_for_sequence_classification/bert/encoder/layer_._8/attention/self/value/Tensordot/concat_1/axis", "op": "Const", "attr": {"value": {"tensor": {"dtype": "DT_INT32", "tensorShape": {}}}, "dtype": {"type": "DT_INT32"}}}, {"name": "StatefulPartitionedCall/tf_bert_for_sequence_classification/bert/encoder/layer_._8/attention/self/value/BiasAdd/ReadVariableOp", "op": "Const", "attr": {"value": {"tensor": {"dtype": "DT_FLOAT", "tensorShape": {"dim": [{"size": "768"}]}}}, "dtype": {"type": "DT_FLOAT"}}}, {"name": "StatefulPartitionedCall/tf_bert_for_sequence_classification/bert/encoder/layer_._8/attention/self/Reshape_1/shape/1", "op": "Const", "attr": {"value": {"tensor": {"dtype": "DT_INT32", "tensorShape": {}}}, "dtype": {"type": "DT_INT32"}}}, {"name": "StatefulPartitionedCall/tf_bert_for_sequence_classification/bert/encoder/layer_._8/attention/self/Reshape_1/shape/2", "op": "Const", "attr": {"value": {"tensor": {"dtype": "DT_INT32", "tensorShape": {}}}, "dtype": {"type": "DT_INT32"}}}, {"name": "StatefulPartitionedCall/tf_bert_for_sequence_classification/bert/encoder/layer_._8/attention/self/Reshape_1/shape/3", "op": "Const", "attr": {"value": {"tensor": {"dtype": "DT_INT32", "tensorShape": {}}}, "dtype": {"type": "DT_INT32"}}}, {"name": "StatefulPartitionedCall/tf_bert_for_sequence_classification/bert/encoder/layer_._8/attention/self/transpose_1/perm", "op": "Const", "attr": {"value": {"tensor": {"dtype": "DT_INT32", "tensorShape": {"dim": [{"size": "4"}]}}}, "dtype": {"type": "DT_INT32"}}}, {"name": "StatefulPartitionedCall/tf_bert_for_sequence_classification/bert/encoder/layer_._8/attention/self/transpose_3/perm", "op": "Const", "attr": {"value": {"tensor": {"dtype": "DT_INT32", "tensorShape": {"dim": [{"size": "4"}]}}}, "dtype": {"type": "DT_INT32"}}}, {"name": "StatefulPartitionedCall/tf_bert_for_sequence_classification/bert/encoder/layer_._8/attention/self/strided_slice/stack", "op": "Const", "attr": {"value": {"tensor": {"dtype": "DT_INT32", "tensorShape": {"dim": [{"size": "1"}]}}}, "dtype": {"type": "DT_INT32"}}}, {"name": "StatefulPartitionedCall/tf_bert_for_sequence_classification/bert/encoder/layer_._8/attention/self/strided_slice/stack_1", "op": "Const", "attr": {"value": {"tensor": {"dtype": "DT_INT32", "tensorShape": {"dim": [{"size": "1"}]}}}, "dtype": {"type": "DT_INT32"}}}, {"name": "StatefulPartitionedCall/tf_bert_for_sequence_classification/bert/encoder/layer_._8/attention/self/strided_slice/stack_2", "op": "Const", "attr": {"value": {"tensor": {"dtype": "DT_INT32", "tensorShape": {"dim": [{"size": "1"}]}}}, "dtype": {"type": "DT_INT32"}}}, {"name": "StatefulPartitionedCall/tf_bert_for_sequence_classification/bert/encoder/layer_._8/attention/self/Reshape_3/shape/1", "op": "Const", "attr": {"value": {"tensor": {"dtype": "DT_INT32", "tensorShape": {}}}, "dtype": {"type": "DT_INT32"}}}, {"name": "StatefulPartitionedCall/tf_bert_for_sequence_classification/bert/encoder/layer_._8/attention/self/Reshape_3/shape/2", "op": "Const", "attr": {"value": {"tensor": {"dtype": "DT_INT32", "tensorShape": {}}}, "dtype": {"type": "DT_INT32"}}}, {"name": "StatefulPartitionedCall/tf_bert_for_sequence_classification/bert/encoder/layer_._8/attention/output/dense/Tensordot/free", "op": "Const", "attr": {"value": {"tensor": {"dtype": "DT_INT32", "tensorShape": {"dim": [{"size": "2"}]}}}, "dtype": {"type": "DT_INT32"}}}, {"name": "StatefulPartitionedCall/tf_bert_for_sequence_classification/bert/encoder/layer_._8/attention/output/dense/Tensordot/GatherV2/axis", "op": "Const", "attr": {"value": {"tensor": {"dtype": "DT_INT32", "tensorShape": {}}}, "dtype": {"type": "DT_INT32"}}}, {"name": "StatefulPartitionedCall/tf_bert_for_sequence_classification/bert/encoder/layer_._8/attention/output/dense/Tensordot/Const_2", "op": "Const", "attr": {"value": {"tensor": {"dtype": "DT_INT32", "tensorShape": {"dim": [{"size": "1"}]}}}, "dtype": {"type": "DT_INT32"}}}, {"name": "StatefulPartitionedCall/tf_bert_for_sequence_classification/bert/encoder/layer_._8/attention/output/dense/Tensordot/concat_1/axis", "op": "Const", "attr": {"value": {"tensor": {"dtype": "DT_INT32", "tensorShape": {}}}, "dtype": {"type": "DT_INT32"}}}, {"name": "StatefulPartitionedCall/tf_bert_for_sequence_classification/bert/encoder/layer_._8/attention/output/dense/BiasAdd/ReadVariableOp", "op": "Const", "attr": {"value": {"tensor": {"dtype": "DT_FLOAT", "tensorShape": {"dim": [{"size": "768"}]}}}, "dtype": {"type": "DT_FLOAT"}}}, {"name": "StatefulPartitionedCall/tf_bert_for_sequence_classification/bert/encoder/layer_._7/output/LayerNorm/batchnorm/ReadVariableOp", "op": "Const", "attr": {"value": {"tensor": {"dtype": "DT_FLOAT", "tensorShape": {"dim": [{"size": "768"}]}}}, "dtype": {"type": "DT_FLOAT"}}}, {"name": "StatefulPartitionedCall/tf_bert_for_sequence_classification/bert/encoder/layer_._7/output/dense/Tensordot/Const", "op": "Const", "attr": {"value": {"tensor": {"dtype": "DT_INT32", "tensorShape": {"dim": [{"size": "1"}]}}}, "dtype": {"type": "DT_INT32"}}}, {"name": "StatefulPartitionedCall/tf_bert_for_sequence_classification/bert/encoder/layer_._7/output/dense/Tensordot/axes", "op": "Const", "attr": {"value": {"tensor": {"dtype": "DT_INT32", "tensorShape": {"dim": [{"size": "1"}]}}}, "dtype": {"type": "DT_INT32"}}}, {"name": "StatefulPartitionedCall/tf_bert_for_sequence_classification/bert/encoder/layer_._7/output/dense/Tensordot/GatherV2_1/axis", "op": "Const", "attr": {"value": {"tensor": {"dtype": "DT_INT32", "tensorShape": {}}}, "dtype": {"type": "DT_INT32"}}}, {"name": "StatefulPartitionedCall/tf_bert_for_sequence_classification/bert/encoder/layer_._7/output/dense/Tensordot/Const_1", "op": "Const", "attr": {"value": {"tensor": {"dtype": "DT_INT32", "tensorShape": {"dim": [{"size": "1"}]}}}, "dtype": {"type": "DT_INT32"}}}, {"name": "StatefulPartitionedCall/tf_bert_for_sequence_classification/bert/encoder/layer_._7/output/dense/Tensordot/ReadVariableOp", "op": "Const", "attr": {"value": {"tensor": {"dtype": "DT_FLOAT", "tensorShape": {"dim": [{"size": "3072"}, {"size": "768"}]}}}, "dtype": {"type": "DT_FLOAT"}}}, {"name": "StatefulPartitionedCall/tf_bert_for_sequence_classification/bert/encoder/layer_._7/intermediate/Gelu/mul/x", "op": "Const", "attr": {"value": {"tensor": {"dtype": "DT_FLOAT", "tensorShape": {}}}, "dtype": {"type": "DT_FLOAT"}}}, {"name": "StatefulPartitionedCall/tf_bert_for_sequence_classification/bert/encoder/layer_._7/intermediate/Gelu/add/x", "op": "Const", "attr": {"value": {"tensor": {"dtype": "DT_FLOAT", "tensorShape": {}}}, "dtype": {"type": "DT_FLOAT"}}}, {"name": "StatefulPartitionedCall/tf_bert_for_sequence_classification/bert/encoder/layer_._7/intermediate/dense/Tensordot/Const", "op": "Const", "attr": {"value": {"tensor": {"dtype": "DT_INT32", "tensorShape": {"dim": [{"size": "1"}]}}}, "dtype": {"type": "DT_INT32"}}}, {"name": "StatefulPartitionedCall/tf_bert_for_sequence_classification/bert/encoder/layer_._7/intermediate/dense/Tensordot/axes", "op": "Const", "attr": {"value": {"tensor": {"dtype": "DT_INT32", "tensorShape": {"dim": [{"size": "1"}]}}}, "dtype": {"type": "DT_INT32"}}}, {"name": "StatefulPartitionedCall/tf_bert_for_sequence_classification/bert/encoder/layer_._7/intermediate/dense/Tensordot/GatherV2_1/axis", "op": "Const", "attr": {"value": {"tensor": {"dtype": "DT_INT32", "tensorShape": {}}}, "dtype": {"type": "DT_INT32"}}}, {"name": "StatefulPartitionedCall/tf_bert_for_sequence_classification/bert/encoder/layer_._7/intermediate/dense/Tensordot/Const_1", "op": "Const", "attr": {"value": {"tensor": {"dtype": "DT_INT32", "tensorShape": {"dim": [{"size": "1"}]}}}, "dtype": {"type": "DT_INT32"}}}, {"name": "StatefulPartitionedCall/tf_bert_for_sequence_classification/bert/encoder/layer_._7/intermediate/dense/Tensordot/ReadVariableOp", "op": "Const", "attr": {"value": {"tensor": {"dtype": "DT_FLOAT", "tensorShape": {"dim": [{"size": "768"}, {"size": "3072"}]}}}, "dtype": {"type": "DT_FLOAT"}}}, {"name": "StatefulPartitionedCall/tf_bert_for_sequence_classification/bert/encoder/layer_._7/intermediate/dense/Tensordot/free", "op": "Const", "attr": {"value": {"tensor": {"dtype": "DT_INT32", "tensorShape": {"dim": [{"size": "2"}]}}}, "dtype": {"type": "DT_INT32"}}}, {"name": "StatefulPartitionedCall/tf_bert_for_sequence_classification/bert/encoder/layer_._7/intermediate/dense/Tensordot/GatherV2/axis", "op": "Const", "attr": {"value": {"tensor": {"dtype": "DT_INT32", "tensorShape": {}}}, "dtype": {"type": "DT_INT32"}}}, {"name": "StatefulPartitionedCall/tf_bert_for_sequence_classification/bert/encoder/layer_._7/intermediate/dense/Tensordot/Const_2", "op": "Const", "attr": {"value": {"tensor": {"dtype": "DT_INT32", "tensorShape": {"dim": [{"size": "1"}]}}}, "dtype": {"type": "DT_INT32"}}}, {"name": "StatefulPartitionedCall/tf_bert_for_sequence_classification/bert/encoder/layer_._7/intermediate/dense/Tensordot/concat_1/axis", "op": "Const", "attr": {"value": {"tensor": {"dtype": "DT_INT32", "tensorShape": {}}}, "dtype": {"type": "DT_INT32"}}}, {"name": "StatefulPartitionedCall/tf_bert_for_sequence_classification/bert/encoder/layer_._7/intermediate/dense/BiasAdd/ReadVariableOp", "op": "Const", "attr": {"value": {"tensor": {"dtype": "DT_FLOAT", "tensorShape": {"dim": [{"size": "3072"}]}}}, "dtype": {"type": "DT_FLOAT"}}}, {"name": "ConstantFolding/StatefulPartitionedCall/tf_bert_for_sequence_classification/bert/encoder/layer_._7/intermediate/Gelu/truediv_recip", "op": "Const", "attr": {"value": {"tensor": {"dtype": "DT_FLOAT", "tensorShape": {}}}, "dtype": {"type": "DT_FLOAT"}}}, {"name": "StatefulPartitionedCall/tf_bert_for_sequence_classification/bert/encoder/layer_._7/output/dense/Tensordot/free", "op": "Const", "attr": {"value": {"tensor": {"dtype": "DT_INT32", "tensorShape": {"dim": [{"size": "2"}]}}}, "dtype": {"type": "DT_INT32"}}}, {"name": "StatefulPartitionedCall/tf_bert_for_sequence_classification/bert/encoder/layer_._7/output/dense/Tensordot/GatherV2/axis", "op": "Const", "attr": {"value": {"tensor": {"dtype": "DT_INT32", "tensorShape": {}}}, "dtype": {"type": "DT_INT32"}}}, {"name": "StatefulPartitionedCall/tf_bert_for_sequence_classification/bert/encoder/layer_._7/output/dense/Tensordot/Const_2", "op": "Const", "attr": {"value": {"tensor": {"dtype": "DT_INT32", "tensorShape": {"dim": [{"size": "1"}]}}}, "dtype": {"type": "DT_INT32"}}}, {"name": "StatefulPartitionedCall/tf_bert_for_sequence_classification/bert/encoder/layer_._7/output/dense/Tensordot/concat_1/axis", "op": "Const", "attr": {"value": {"tensor": {"dtype": "DT_INT32", "tensorShape": {}}}, "dtype": {"type": "DT_INT32"}}}, {"name": "StatefulPartitionedCall/tf_bert_for_sequence_classification/bert/encoder/layer_._7/output/dense/BiasAdd/ReadVariableOp", "op": "Const", "attr": {"value": {"tensor": {"dtype": "DT_FLOAT", "tensorShape": {"dim": [{"size": "768"}]}}}, "dtype": {"type": "DT_FLOAT"}}}, {"name": "StatefulPartitionedCall/tf_bert_for_sequence_classification/bert/encoder/layer_._7/attention/output/LayerNorm/batchnorm/ReadVariableOp", "op": "Const", "attr": {"value": {"tensor": {"dtype": "DT_FLOAT", "tensorShape": {"dim": [{"size": "768"}]}}}, "dtype": {"type": "DT_FLOAT"}}}, {"name": "StatefulPartitionedCall/tf_bert_for_sequence_classification/bert/encoder/layer_._7/attention/output/dense/Tensordot/Const", "op": "Const", "attr": {"value": {"tensor": {"dtype": "DT_INT32", "tensorShape": {"dim": [{"size": "1"}]}}}, "dtype": {"type": "DT_INT32"}}}, {"name": "StatefulPartitionedCall/tf_bert_for_sequence_classification/bert/encoder/layer_._7/attention/output/dense/Tensordot/axes", "op": "Const", "attr": {"value": {"tensor": {"dtype": "DT_INT32", "tensorShape": {"dim": [{"size": "1"}]}}}, "dtype": {"type": "DT_INT32"}}}, {"name": "StatefulPartitionedCall/tf_bert_for_sequence_classification/bert/encoder/layer_._7/attention/output/dense/Tensordot/GatherV2_1/axis", "op": "Const", "attr": {"value": {"tensor": {"dtype": "DT_INT32", "tensorShape": {}}}, "dtype": {"type": "DT_INT32"}}}, {"name": "StatefulPartitionedCall/tf_bert_for_sequence_classification/bert/encoder/layer_._7/attention/output/dense/Tensordot/Const_1", "op": "Const", "attr": {"value": {"tensor": {"dtype": "DT_INT32", "tensorShape": {"dim": [{"size": "1"}]}}}, "dtype": {"type": "DT_INT32"}}}, {"name": "StatefulPartitionedCall/tf_bert_for_sequence_classification/bert/encoder/layer_._7/attention/output/dense/Tensordot/ReadVariableOp", "op": "Const", "attr": {"value": {"tensor": {"dtype": "DT_FLOAT", "tensorShape": {"dim": [{"size": "768"}, {"size": "768"}]}}}, "dtype": {"type": "DT_FLOAT"}}}, {"name": "StatefulPartitionedCall/tf_bert_for_sequence_classification/bert/encoder/layer_._7/attention/self/query/Tensordot/Const", "op": "Const", "attr": {"value": {"tensor": {"dtype": "DT_INT32", "tensorShape": {"dim": [{"size": "1"}]}}}, "dtype": {"type": "DT_INT32"}}}, {"name": "StatefulPartitionedCall/tf_bert_for_sequence_classification/bert/encoder/layer_._7/attention/self/query/Tensordot/axes", "op": "Const", "attr": {"value": {"tensor": {"dtype": "DT_INT32", "tensorShape": {"dim": [{"size": "1"}]}}}, "dtype": {"type": "DT_INT32"}}}, {"name": "StatefulPartitionedCall/tf_bert_for_sequence_classification/bert/encoder/layer_._7/attention/self/query/Tensordot/GatherV2_1/axis", "op": "Const", "attr": {"value": {"tensor": {"dtype": "DT_INT32", "tensorShape": {}}}, "dtype": {"type": "DT_INT32"}}}, {"name": "StatefulPartitionedCall/tf_bert_for_sequence_classification/bert/encoder/layer_._7/attention/self/query/Tensordot/Const_1", "op": "Const", "attr": {"value": {"tensor": {"dtype": "DT_INT32", "tensorShape": {"dim": [{"size": "1"}]}}}, "dtype": {"type": "DT_INT32"}}}, {"name": "StatefulPartitionedCall/tf_bert_for_sequence_classification/bert/encoder/layer_._7/attention/self/query/Tensordot/ReadVariableOp", "op": "Const", "attr": {"value": {"tensor": {"dtype": "DT_FLOAT", "tensorShape": {"dim": [{"size": "768"}, {"size": "768"}]}}}, "dtype": {"type": "DT_FLOAT"}}}, {"name": "StatefulPartitionedCall/tf_bert_for_sequence_classification/bert/encoder/layer_._7/attention/self/query/Tensordot/free", "op": "Const", "attr": {"value": {"tensor": {"dtype": "DT_INT32", "tensorShape": {"dim": [{"size": "2"}]}}}, "dtype": {"type": "DT_INT32"}}}, {"name": "StatefulPartitionedCall/tf_bert_for_sequence_classification/bert/encoder/layer_._7/attention/self/query/Tensordot/GatherV2/axis", "op": "Const", "attr": {"value": {"tensor": {"dtype": "DT_INT32", "tensorShape": {}}}, "dtype": {"type": "DT_INT32"}}}, {"name": "StatefulPartitionedCall/tf_bert_for_sequence_classification/bert/encoder/layer_._7/attention/self/query/Tensordot/Const_2", "op": "Const", "attr": {"value": {"tensor": {"dtype": "DT_INT32", "tensorShape": {"dim": [{"size": "1"}]}}}, "dtype": {"type": "DT_INT32"}}}, {"name": "StatefulPartitionedCall/tf_bert_for_sequence_classification/bert/encoder/layer_._7/attention/self/query/Tensordot/concat_1/axis", "op": "Const", "attr": {"value": {"tensor": {"dtype": "DT_INT32", "tensorShape": {}}}, "dtype": {"type": "DT_INT32"}}}, {"name": "StatefulPartitionedCall/tf_bert_for_sequence_classification/bert/encoder/layer_._7/attention/self/query/BiasAdd/ReadVariableOp", "op": "Const", "attr": {"value": {"tensor": {"dtype": "DT_FLOAT", "tensorShape": {"dim": [{"size": "768"}]}}}, "dtype": {"type": "DT_FLOAT"}}}, {"name": "StatefulPartitionedCall/tf_bert_for_sequence_classification/bert/encoder/layer_._7/attention/self/Reshape_2/shape/1", "op": "Const", "attr": {"value": {"tensor": {"dtype": "DT_INT32", "tensorShape": {}}}, "dtype": {"type": "DT_INT32"}}}, {"name": "StatefulPartitionedCall/tf_bert_for_sequence_classification/bert/encoder/layer_._7/attention/self/Reshape_2/shape/2", "op": "Const", "attr": {"value": {"tensor": {"dtype": "DT_INT32", "tensorShape": {}}}, "dtype": {"type": "DT_INT32"}}}, {"name": "StatefulPartitionedCall/tf_bert_for_sequence_classification/bert/encoder/layer_._7/attention/self/Reshape_2/shape/3", "op": "Const", "attr": {"value": {"tensor": {"dtype": "DT_INT32", "tensorShape": {}}}, "dtype": {"type": "DT_INT32"}}}, {"name": "StatefulPartitionedCall/tf_bert_for_sequence_classification/bert/encoder/layer_._7/attention/self/transpose_2/perm", "op": "Const", "attr": {"value": {"tensor": {"dtype": "DT_INT32", "tensorShape": {"dim": [{"size": "4"}]}}}, "dtype": {"type": "DT_INT32"}}}, {"name": "StatefulPartitionedCall/tf_bert_for_sequence_classification/bert/encoder/layer_._7/attention/self/key/Tensordot/Const", "op": "Const", "attr": {"value": {"tensor": {"dtype": "DT_INT32", "tensorShape": {"dim": [{"size": "1"}]}}}, "dtype": {"type": "DT_INT32"}}}, {"name": "StatefulPartitionedCall/tf_bert_for_sequence_classification/bert/encoder/layer_._7/attention/self/key/Tensordot/axes", "op": "Const", "attr": {"value": {"tensor": {"dtype": "DT_INT32", "tensorShape": {"dim": [{"size": "1"}]}}}, "dtype": {"type": "DT_INT32"}}}, {"name": "StatefulPartitionedCall/tf_bert_for_sequence_classification/bert/encoder/layer_._7/attention/self/key/Tensordot/GatherV2_1/axis", "op": "Const", "attr": {"value": {"tensor": {"dtype": "DT_INT32", "tensorShape": {}}}, "dtype": {"type": "DT_INT32"}}}, {"name": "StatefulPartitionedCall/tf_bert_for_sequence_classification/bert/encoder/layer_._7/attention/self/key/Tensordot/Const_1", "op": "Const", "attr": {"value": {"tensor": {"dtype": "DT_INT32", "tensorShape": {"dim": [{"size": "1"}]}}}, "dtype": {"type": "DT_INT32"}}}, {"name": "StatefulPartitionedCall/tf_bert_for_sequence_classification/bert/encoder/layer_._7/attention/self/key/Tensordot/ReadVariableOp", "op": "Const", "attr": {"value": {"tensor": {"dtype": "DT_FLOAT", "tensorShape": {"dim": [{"size": "768"}, {"size": "768"}]}}}, "dtype": {"type": "DT_FLOAT"}}}, {"name": "StatefulPartitionedCall/tf_bert_for_sequence_classification/bert/encoder/layer_._7/attention/self/key/Tensordot/free", "op": "Const", "attr": {"value": {"tensor": {"dtype": "DT_INT32", "tensorShape": {"dim": [{"size": "2"}]}}}, "dtype": {"type": "DT_INT32"}}}, {"name": "StatefulPartitionedCall/tf_bert_for_sequence_classification/bert/encoder/layer_._7/attention/self/key/Tensordot/GatherV2/axis", "op": "Const", "attr": {"value": {"tensor": {"dtype": "DT_INT32", "tensorShape": {}}}, "dtype": {"type": "DT_INT32"}}}, {"name": "StatefulPartitionedCall/tf_bert_for_sequence_classification/bert/encoder/layer_._7/attention/self/key/Tensordot/Const_2", "op": "Const", "attr": {"value": {"tensor": {"dtype": "DT_INT32", "tensorShape": {"dim": [{"size": "1"}]}}}, "dtype": {"type": "DT_INT32"}}}, {"name": "StatefulPartitionedCall/tf_bert_for_sequence_classification/bert/encoder/layer_._7/attention/self/key/Tensordot/concat_1/axis", "op": "Const", "attr": {"value": {"tensor": {"dtype": "DT_INT32", "tensorShape": {}}}, "dtype": {"type": "DT_INT32"}}}, {"name": "StatefulPartitionedCall/tf_bert_for_sequence_classification/bert/encoder/layer_._7/attention/self/key/BiasAdd/ReadVariableOp", "op": "Const", "attr": {"value": {"tensor": {"dtype": "DT_FLOAT", "tensorShape": {"dim": [{"size": "768"}]}}}, "dtype": {"type": "DT_FLOAT"}}}, {"name": "StatefulPartitionedCall/tf_bert_for_sequence_classification/bert/encoder/layer_._7/attention/self/Reshape/shape/1", "op": "Const", "attr": {"value": {"tensor": {"dtype": "DT_INT32", "tensorShape": {}}}, "dtype": {"type": "DT_INT32"}}}, {"name": "StatefulPartitionedCall/tf_bert_for_sequence_classification/bert/encoder/layer_._7/attention/self/Reshape/shape/2", "op": "Const", "attr": {"value": {"tensor": {"dtype": "DT_INT32", "tensorShape": {}}}, "dtype": {"type": "DT_INT32"}}}, {"name": "StatefulPartitionedCall/tf_bert_for_sequence_classification/bert/encoder/layer_._7/attention/self/Reshape/shape/3", "op": "Const", "attr": {"value": {"tensor": {"dtype": "DT_INT32", "tensorShape": {}}}, "dtype": {"type": "DT_INT32"}}}, {"name": "StatefulPartitionedCall/tf_bert_for_sequence_classification/bert/encoder/layer_._7/attention/self/transpose/perm", "op": "Const", "attr": {"value": {"tensor": {"dtype": "DT_INT32", "tensorShape": {"dim": [{"size": "4"}]}}}, "dtype": {"type": "DT_INT32"}}}, {"name": "ConstantFolding/StatefulPartitionedCall/tf_bert_for_sequence_classification/bert/encoder/layer_._7/attention/self/truediv_recip", "op": "Const", "attr": {"value": {"tensor": {"dtype": "DT_FLOAT", "tensorShape": {}}}, "dtype": {"type": "DT_FLOAT"}}}, {"name": "StatefulPartitionedCall/tf_bert_for_sequence_classification/bert/encoder/layer_._7/attention/self/add_1/y", "op": "Const", "attr": {"value": {"tensor": {"dtype": "DT_FLOAT", "tensorShape": {}}}, "dtype": {"type": "DT_FLOAT"}}}, {"name": "StatefulPartitionedCall/tf_bert_for_sequence_classification/bert/encoder/layer_._7/attention/self/value/Tensordot/Const", "op": "Const", "attr": {"value": {"tensor": {"dtype": "DT_INT32", "tensorShape": {"dim": [{"size": "1"}]}}}, "dtype": {"type": "DT_INT32"}}}, {"name": "StatefulPartitionedCall/tf_bert_for_sequence_classification/bert/encoder/layer_._7/attention/self/value/Tensordot/axes", "op": "Const", "attr": {"value": {"tensor": {"dtype": "DT_INT32", "tensorShape": {"dim": [{"size": "1"}]}}}, "dtype": {"type": "DT_INT32"}}}, {"name": "StatefulPartitionedCall/tf_bert_for_sequence_classification/bert/encoder/layer_._7/attention/self/value/Tensordot/GatherV2_1/axis", "op": "Const", "attr": {"value": {"tensor": {"dtype": "DT_INT32", "tensorShape": {}}}, "dtype": {"type": "DT_INT32"}}}, {"name": "StatefulPartitionedCall/tf_bert_for_sequence_classification/bert/encoder/layer_._7/attention/self/value/Tensordot/Const_1", "op": "Const", "attr": {"value": {"tensor": {"dtype": "DT_INT32", "tensorShape": {"dim": [{"size": "1"}]}}}, "dtype": {"type": "DT_INT32"}}}, {"name": "StatefulPartitionedCall/tf_bert_for_sequence_classification/bert/encoder/layer_._7/attention/self/value/Tensordot/ReadVariableOp", "op": "Const", "attr": {"value": {"tensor": {"dtype": "DT_FLOAT", "tensorShape": {"dim": [{"size": "768"}, {"size": "768"}]}}}, "dtype": {"type": "DT_FLOAT"}}}, {"name": "StatefulPartitionedCall/tf_bert_for_sequence_classification/bert/encoder/layer_._7/attention/self/value/Tensordot/free", "op": "Const", "attr": {"value": {"tensor": {"dtype": "DT_INT32", "tensorShape": {"dim": [{"size": "2"}]}}}, "dtype": {"type": "DT_INT32"}}}, {"name": "StatefulPartitionedCall/tf_bert_for_sequence_classification/bert/encoder/layer_._7/attention/self/value/Tensordot/GatherV2/axis", "op": "Const", "attr": {"value": {"tensor": {"dtype": "DT_INT32", "tensorShape": {}}}, "dtype": {"type": "DT_INT32"}}}, {"name": "StatefulPartitionedCall/tf_bert_for_sequence_classification/bert/encoder/layer_._7/attention/self/value/Tensordot/Const_2", "op": "Const", "attr": {"value": {"tensor": {"dtype": "DT_INT32", "tensorShape": {"dim": [{"size": "1"}]}}}, "dtype": {"type": "DT_INT32"}}}, {"name": "StatefulPartitionedCall/tf_bert_for_sequence_classification/bert/encoder/layer_._7/attention/self/value/Tensordot/concat_1/axis", "op": "Const", "attr": {"value": {"tensor": {"dtype": "DT_INT32", "tensorShape": {}}}, "dtype": {"type": "DT_INT32"}}}, {"name": "StatefulPartitionedCall/tf_bert_for_sequence_classification/bert/encoder/layer_._7/attention/self/value/BiasAdd/ReadVariableOp", "op": "Const", "attr": {"value": {"tensor": {"dtype": "DT_FLOAT", "tensorShape": {"dim": [{"size": "768"}]}}}, "dtype": {"type": "DT_FLOAT"}}}, {"name": "StatefulPartitionedCall/tf_bert_for_sequence_classification/bert/encoder/layer_._7/attention/self/Reshape_1/shape/1", "op": "Const", "attr": {"value": {"tensor": {"dtype": "DT_INT32", "tensorShape": {}}}, "dtype": {"type": "DT_INT32"}}}, {"name": "StatefulPartitionedCall/tf_bert_for_sequence_classification/bert/encoder/layer_._7/attention/self/Reshape_1/shape/2", "op": "Const", "attr": {"value": {"tensor": {"dtype": "DT_INT32", "tensorShape": {}}}, "dtype": {"type": "DT_INT32"}}}, {"name": "StatefulPartitionedCall/tf_bert_for_sequence_classification/bert/encoder/layer_._7/attention/self/Reshape_1/shape/3", "op": "Const", "attr": {"value": {"tensor": {"dtype": "DT_INT32", "tensorShape": {}}}, "dtype": {"type": "DT_INT32"}}}, {"name": "StatefulPartitionedCall/tf_bert_for_sequence_classification/bert/encoder/layer_._7/attention/self/transpose_1/perm", "op": "Const", "attr": {"value": {"tensor": {"dtype": "DT_INT32", "tensorShape": {"dim": [{"size": "4"}]}}}, "dtype": {"type": "DT_INT32"}}}, {"name": "StatefulPartitionedCall/tf_bert_for_sequence_classification/bert/encoder/layer_._7/attention/self/transpose_3/perm", "op": "Const", "attr": {"value": {"tensor": {"dtype": "DT_INT32", "tensorShape": {"dim": [{"size": "4"}]}}}, "dtype": {"type": "DT_INT32"}}}, {"name": "StatefulPartitionedCall/tf_bert_for_sequence_classification/bert/encoder/layer_._7/attention/self/strided_slice/stack", "op": "Const", "attr": {"value": {"tensor": {"dtype": "DT_INT32", "tensorShape": {"dim": [{"size": "1"}]}}}, "dtype": {"type": "DT_INT32"}}}, {"name": "StatefulPartitionedCall/tf_bert_for_sequence_classification/bert/encoder/layer_._7/attention/self/strided_slice/stack_1", "op": "Const", "attr": {"value": {"tensor": {"dtype": "DT_INT32", "tensorShape": {"dim": [{"size": "1"}]}}}, "dtype": {"type": "DT_INT32"}}}, {"name": "StatefulPartitionedCall/tf_bert_for_sequence_classification/bert/encoder/layer_._7/attention/self/strided_slice/stack_2", "op": "Const", "attr": {"value": {"tensor": {"dtype": "DT_INT32", "tensorShape": {"dim": [{"size": "1"}]}}}, "dtype": {"type": "DT_INT32"}}}, {"name": "StatefulPartitionedCall/tf_bert_for_sequence_classification/bert/encoder/layer_._7/attention/self/Reshape_3/shape/1", "op": "Const", "attr": {"value": {"tensor": {"dtype": "DT_INT32", "tensorShape": {}}}, "dtype": {"type": "DT_INT32"}}}, {"name": "StatefulPartitionedCall/tf_bert_for_sequence_classification/bert/encoder/layer_._7/attention/self/Reshape_3/shape/2", "op": "Const", "attr": {"value": {"tensor": {"dtype": "DT_INT32", "tensorShape": {}}}, "dtype": {"type": "DT_INT32"}}}, {"name": "StatefulPartitionedCall/tf_bert_for_sequence_classification/bert/encoder/layer_._7/attention/output/dense/Tensordot/free", "op": "Const", "attr": {"value": {"tensor": {"dtype": "DT_INT32", "tensorShape": {"dim": [{"size": "2"}]}}}, "dtype": {"type": "DT_INT32"}}}, {"name": "StatefulPartitionedCall/tf_bert_for_sequence_classification/bert/encoder/layer_._7/attention/output/dense/Tensordot/GatherV2/axis", "op": "Const", "attr": {"value": {"tensor": {"dtype": "DT_INT32", "tensorShape": {}}}, "dtype": {"type": "DT_INT32"}}}, {"name": "StatefulPartitionedCall/tf_bert_for_sequence_classification/bert/encoder/layer_._7/attention/output/dense/Tensordot/Const_2", "op": "Const", "attr": {"value": {"tensor": {"dtype": "DT_INT32", "tensorShape": {"dim": [{"size": "1"}]}}}, "dtype": {"type": "DT_INT32"}}}, {"name": "StatefulPartitionedCall/tf_bert_for_sequence_classification/bert/encoder/layer_._7/attention/output/dense/Tensordot/concat_1/axis", "op": "Const", "attr": {"value": {"tensor": {"dtype": "DT_INT32", "tensorShape": {}}}, "dtype": {"type": "DT_INT32"}}}, {"name": "StatefulPartitionedCall/tf_bert_for_sequence_classification/bert/encoder/layer_._7/attention/output/dense/BiasAdd/ReadVariableOp", "op": "Const", "attr": {"value": {"tensor": {"dtype": "DT_FLOAT", "tensorShape": {"dim": [{"size": "768"}]}}}, "dtype": {"type": "DT_FLOAT"}}}, {"name": "StatefulPartitionedCall/tf_bert_for_sequence_classification/bert/encoder/layer_._6/output/LayerNorm/batchnorm/ReadVariableOp", "op": "Const", "attr": {"value": {"tensor": {"dtype": "DT_FLOAT", "tensorShape": {"dim": [{"size": "768"}]}}}, "dtype": {"type": "DT_FLOAT"}}}, {"name": "StatefulPartitionedCall/tf_bert_for_sequence_classification/bert/encoder/layer_._6/output/dense/Tensordot/Const", "op": "Const", "attr": {"value": {"tensor": {"dtype": "DT_INT32", "tensorShape": {"dim": [{"size": "1"}]}}}, "dtype": {"type": "DT_INT32"}}}, {"name": "StatefulPartitionedCall/tf_bert_for_sequence_classification/bert/encoder/layer_._6/output/dense/Tensordot/axes", "op": "Const", "attr": {"value": {"tensor": {"dtype": "DT_INT32", "tensorShape": {"dim": [{"size": "1"}]}}}, "dtype": {"type": "DT_INT32"}}}, {"name": "StatefulPartitionedCall/tf_bert_for_sequence_classification/bert/encoder/layer_._6/output/dense/Tensordot/GatherV2_1/axis", "op": "Const", "attr": {"value": {"tensor": {"dtype": "DT_INT32", "tensorShape": {}}}, "dtype": {"type": "DT_INT32"}}}, {"name": "StatefulPartitionedCall/tf_bert_for_sequence_classification/bert/encoder/layer_._6/output/dense/Tensordot/Const_1", "op": "Const", "attr": {"value": {"tensor": {"dtype": "DT_INT32", "tensorShape": {"dim": [{"size": "1"}]}}}, "dtype": {"type": "DT_INT32"}}}, {"name": "StatefulPartitionedCall/tf_bert_for_sequence_classification/bert/encoder/layer_._6/output/dense/Tensordot/ReadVariableOp", "op": "Const", "attr": {"value": {"tensor": {"dtype": "DT_FLOAT", "tensorShape": {"dim": [{"size": "3072"}, {"size": "768"}]}}}, "dtype": {"type": "DT_FLOAT"}}}, {"name": "StatefulPartitionedCall/tf_bert_for_sequence_classification/bert/encoder/layer_._6/intermediate/Gelu/mul/x", "op": "Const", "attr": {"value": {"tensor": {"dtype": "DT_FLOAT", "tensorShape": {}}}, "dtype": {"type": "DT_FLOAT"}}}, {"name": "StatefulPartitionedCall/tf_bert_for_sequence_classification/bert/encoder/layer_._6/intermediate/Gelu/add/x", "op": "Const", "attr": {"value": {"tensor": {"dtype": "DT_FLOAT", "tensorShape": {}}}, "dtype": {"type": "DT_FLOAT"}}}, {"name": "StatefulPartitionedCall/tf_bert_for_sequence_classification/bert/encoder/layer_._6/intermediate/dense/Tensordot/Const", "op": "Const", "attr": {"value": {"tensor": {"dtype": "DT_INT32", "tensorShape": {"dim": [{"size": "1"}]}}}, "dtype": {"type": "DT_INT32"}}}, {"name": "StatefulPartitionedCall/tf_bert_for_sequence_classification/bert/encoder/layer_._6/intermediate/dense/Tensordot/axes", "op": "Const", "attr": {"value": {"tensor": {"dtype": "DT_INT32", "tensorShape": {"dim": [{"size": "1"}]}}}, "dtype": {"type": "DT_INT32"}}}, {"name": "StatefulPartitionedCall/tf_bert_for_sequence_classification/bert/encoder/layer_._6/intermediate/dense/Tensordot/GatherV2_1/axis", "op": "Const", "attr": {"value": {"tensor": {"dtype": "DT_INT32", "tensorShape": {}}}, "dtype": {"type": "DT_INT32"}}}, {"name": "StatefulPartitionedCall/tf_bert_for_sequence_classification/bert/encoder/layer_._6/intermediate/dense/Tensordot/Const_1", "op": "Const", "attr": {"value": {"tensor": {"dtype": "DT_INT32", "tensorShape": {"dim": [{"size": "1"}]}}}, "dtype": {"type": "DT_INT32"}}}, {"name": "StatefulPartitionedCall/tf_bert_for_sequence_classification/bert/encoder/layer_._6/intermediate/dense/Tensordot/ReadVariableOp", "op": "Const", "attr": {"value": {"tensor": {"dtype": "DT_FLOAT", "tensorShape": {"dim": [{"size": "768"}, {"size": "3072"}]}}}, "dtype": {"type": "DT_FLOAT"}}}, {"name": "StatefulPartitionedCall/tf_bert_for_sequence_classification/bert/encoder/layer_._6/intermediate/dense/Tensordot/free", "op": "Const", "attr": {"value": {"tensor": {"dtype": "DT_INT32", "tensorShape": {"dim": [{"size": "2"}]}}}, "dtype": {"type": "DT_INT32"}}}, {"name": "StatefulPartitionedCall/tf_bert_for_sequence_classification/bert/encoder/layer_._6/intermediate/dense/Tensordot/GatherV2/axis", "op": "Const", "attr": {"value": {"tensor": {"dtype": "DT_INT32", "tensorShape": {}}}, "dtype": {"type": "DT_INT32"}}}, {"name": "StatefulPartitionedCall/tf_bert_for_sequence_classification/bert/encoder/layer_._6/intermediate/dense/Tensordot/Const_2", "op": "Const", "attr": {"value": {"tensor": {"dtype": "DT_INT32", "tensorShape": {"dim": [{"size": "1"}]}}}, "dtype": {"type": "DT_INT32"}}}, {"name": "StatefulPartitionedCall/tf_bert_for_sequence_classification/bert/encoder/layer_._6/intermediate/dense/Tensordot/concat_1/axis", "op": "Const", "attr": {"value": {"tensor": {"dtype": "DT_INT32", "tensorShape": {}}}, "dtype": {"type": "DT_INT32"}}}, {"name": "StatefulPartitionedCall/tf_bert_for_sequence_classification/bert/encoder/layer_._6/intermediate/dense/BiasAdd/ReadVariableOp", "op": "Const", "attr": {"value": {"tensor": {"dtype": "DT_FLOAT", "tensorShape": {"dim": [{"size": "3072"}]}}}, "dtype": {"type": "DT_FLOAT"}}}, {"name": "ConstantFolding/StatefulPartitionedCall/tf_bert_for_sequence_classification/bert/encoder/layer_._6/intermediate/Gelu/truediv_recip", "op": "Const", "attr": {"value": {"tensor": {"dtype": "DT_FLOAT", "tensorShape": {}}}, "dtype": {"type": "DT_FLOAT"}}}, {"name": "StatefulPartitionedCall/tf_bert_for_sequence_classification/bert/encoder/layer_._6/output/dense/Tensordot/free", "op": "Const", "attr": {"value": {"tensor": {"dtype": "DT_INT32", "tensorShape": {"dim": [{"size": "2"}]}}}, "dtype": {"type": "DT_INT32"}}}, {"name": "StatefulPartitionedCall/tf_bert_for_sequence_classification/bert/encoder/layer_._6/output/dense/Tensordot/GatherV2/axis", "op": "Const", "attr": {"value": {"tensor": {"dtype": "DT_INT32", "tensorShape": {}}}, "dtype": {"type": "DT_INT32"}}}, {"name": "StatefulPartitionedCall/tf_bert_for_sequence_classification/bert/encoder/layer_._6/output/dense/Tensordot/Const_2", "op": "Const", "attr": {"value": {"tensor": {"dtype": "DT_INT32", "tensorShape": {"dim": [{"size": "1"}]}}}, "dtype": {"type": "DT_INT32"}}}, {"name": "StatefulPartitionedCall/tf_bert_for_sequence_classification/bert/encoder/layer_._6/output/dense/Tensordot/concat_1/axis", "op": "Const", "attr": {"value": {"tensor": {"dtype": "DT_INT32", "tensorShape": {}}}, "dtype": {"type": "DT_INT32"}}}, {"name": "StatefulPartitionedCall/tf_bert_for_sequence_classification/bert/encoder/layer_._6/output/dense/BiasAdd/ReadVariableOp", "op": "Const", "attr": {"value": {"tensor": {"dtype": "DT_FLOAT", "tensorShape": {"dim": [{"size": "768"}]}}}, "dtype": {"type": "DT_FLOAT"}}}, {"name": "StatefulPartitionedCall/tf_bert_for_sequence_classification/bert/encoder/layer_._6/attention/output/LayerNorm/batchnorm/ReadVariableOp", "op": "Const", "attr": {"value": {"tensor": {"dtype": "DT_FLOAT", "tensorShape": {"dim": [{"size": "768"}]}}}, "dtype": {"type": "DT_FLOAT"}}}, {"name": "StatefulPartitionedCall/tf_bert_for_sequence_classification/bert/encoder/layer_._6/attention/output/dense/Tensordot/Const", "op": "Const", "attr": {"value": {"tensor": {"dtype": "DT_INT32", "tensorShape": {"dim": [{"size": "1"}]}}}, "dtype": {"type": "DT_INT32"}}}, {"name": "StatefulPartitionedCall/tf_bert_for_sequence_classification/bert/encoder/layer_._6/attention/output/dense/Tensordot/axes", "op": "Const", "attr": {"value": {"tensor": {"dtype": "DT_INT32", "tensorShape": {"dim": [{"size": "1"}]}}}, "dtype": {"type": "DT_INT32"}}}, {"name": "StatefulPartitionedCall/tf_bert_for_sequence_classification/bert/encoder/layer_._6/attention/output/dense/Tensordot/GatherV2_1/axis", "op": "Const", "attr": {"value": {"tensor": {"dtype": "DT_INT32", "tensorShape": {}}}, "dtype": {"type": "DT_INT32"}}}, {"name": "StatefulPartitionedCall/tf_bert_for_sequence_classification/bert/encoder/layer_._6/attention/output/dense/Tensordot/Const_1", "op": "Const", "attr": {"value": {"tensor": {"dtype": "DT_INT32", "tensorShape": {"dim": [{"size": "1"}]}}}, "dtype": {"type": "DT_INT32"}}}, {"name": "StatefulPartitionedCall/tf_bert_for_sequence_classification/bert/encoder/layer_._6/attention/output/dense/Tensordot/ReadVariableOp", "op": "Const", "attr": {"value": {"tensor": {"dtype": "DT_FLOAT", "tensorShape": {"dim": [{"size": "768"}, {"size": "768"}]}}}, "dtype": {"type": "DT_FLOAT"}}}, {"name": "StatefulPartitionedCall/tf_bert_for_sequence_classification/bert/encoder/layer_._6/attention/self/query/Tensordot/Const", "op": "Const", "attr": {"value": {"tensor": {"dtype": "DT_INT32", "tensorShape": {"dim": [{"size": "1"}]}}}, "dtype": {"type": "DT_INT32"}}}, {"name": "StatefulPartitionedCall/tf_bert_for_sequence_classification/bert/encoder/layer_._6/attention/self/query/Tensordot/axes", "op": "Const", "attr": {"value": {"tensor": {"dtype": "DT_INT32", "tensorShape": {"dim": [{"size": "1"}]}}}, "dtype": {"type": "DT_INT32"}}}, {"name": "StatefulPartitionedCall/tf_bert_for_sequence_classification/bert/encoder/layer_._6/attention/self/query/Tensordot/GatherV2_1/axis", "op": "Const", "attr": {"value": {"tensor": {"dtype": "DT_INT32", "tensorShape": {}}}, "dtype": {"type": "DT_INT32"}}}, {"name": "StatefulPartitionedCall/tf_bert_for_sequence_classification/bert/encoder/layer_._6/attention/self/query/Tensordot/Const_1", "op": "Const", "attr": {"value": {"tensor": {"dtype": "DT_INT32", "tensorShape": {"dim": [{"size": "1"}]}}}, "dtype": {"type": "DT_INT32"}}}, {"name": "StatefulPartitionedCall/tf_bert_for_sequence_classification/bert/encoder/layer_._6/attention/self/query/Tensordot/ReadVariableOp", "op": "Const", "attr": {"value": {"tensor": {"dtype": "DT_FLOAT", "tensorShape": {"dim": [{"size": "768"}, {"size": "768"}]}}}, "dtype": {"type": "DT_FLOAT"}}}, {"name": "StatefulPartitionedCall/tf_bert_for_sequence_classification/bert/encoder/layer_._6/attention/self/query/Tensordot/free", "op": "Const", "attr": {"value": {"tensor": {"dtype": "DT_INT32", "tensorShape": {"dim": [{"size": "2"}]}}}, "dtype": {"type": "DT_INT32"}}}, {"name": "StatefulPartitionedCall/tf_bert_for_sequence_classification/bert/encoder/layer_._6/attention/self/query/Tensordot/GatherV2/axis", "op": "Const", "attr": {"value": {"tensor": {"dtype": "DT_INT32", "tensorShape": {}}}, "dtype": {"type": "DT_INT32"}}}, {"name": "StatefulPartitionedCall/tf_bert_for_sequence_classification/bert/encoder/layer_._6/attention/self/query/Tensordot/Const_2", "op": "Const", "attr": {"value": {"tensor": {"dtype": "DT_INT32", "tensorShape": {"dim": [{"size": "1"}]}}}, "dtype": {"type": "DT_INT32"}}}, {"name": "StatefulPartitionedCall/tf_bert_for_sequence_classification/bert/encoder/layer_._6/attention/self/query/Tensordot/concat_1/axis", "op": "Const", "attr": {"value": {"tensor": {"dtype": "DT_INT32", "tensorShape": {}}}, "dtype": {"type": "DT_INT32"}}}, {"name": "StatefulPartitionedCall/tf_bert_for_sequence_classification/bert/encoder/layer_._6/attention/self/query/BiasAdd/ReadVariableOp", "op": "Const", "attr": {"value": {"tensor": {"dtype": "DT_FLOAT", "tensorShape": {"dim": [{"size": "768"}]}}}, "dtype": {"type": "DT_FLOAT"}}}, {"name": "StatefulPartitionedCall/tf_bert_for_sequence_classification/bert/encoder/layer_._6/attention/self/Reshape_2/shape/1", "op": "Const", "attr": {"value": {"tensor": {"dtype": "DT_INT32", "tensorShape": {}}}, "dtype": {"type": "DT_INT32"}}}, {"name": "StatefulPartitionedCall/tf_bert_for_sequence_classification/bert/encoder/layer_._6/attention/self/Reshape_2/shape/2", "op": "Const", "attr": {"value": {"tensor": {"dtype": "DT_INT32", "tensorShape": {}}}, "dtype": {"type": "DT_INT32"}}}, {"name": "StatefulPartitionedCall/tf_bert_for_sequence_classification/bert/encoder/layer_._6/attention/self/Reshape_2/shape/3", "op": "Const", "attr": {"value": {"tensor": {"dtype": "DT_INT32", "tensorShape": {}}}, "dtype": {"type": "DT_INT32"}}}, {"name": "StatefulPartitionedCall/tf_bert_for_sequence_classification/bert/encoder/layer_._6/attention/self/transpose_2/perm", "op": "Const", "attr": {"value": {"tensor": {"dtype": "DT_INT32", "tensorShape": {"dim": [{"size": "4"}]}}}, "dtype": {"type": "DT_INT32"}}}, {"name": "StatefulPartitionedCall/tf_bert_for_sequence_classification/bert/encoder/layer_._6/attention/self/key/Tensordot/Const", "op": "Const", "attr": {"value": {"tensor": {"dtype": "DT_INT32", "tensorShape": {"dim": [{"size": "1"}]}}}, "dtype": {"type": "DT_INT32"}}}, {"name": "StatefulPartitionedCall/tf_bert_for_sequence_classification/bert/encoder/layer_._6/attention/self/key/Tensordot/axes", "op": "Const", "attr": {"value": {"tensor": {"dtype": "DT_INT32", "tensorShape": {"dim": [{"size": "1"}]}}}, "dtype": {"type": "DT_INT32"}}}, {"name": "StatefulPartitionedCall/tf_bert_for_sequence_classification/bert/encoder/layer_._6/attention/self/key/Tensordot/GatherV2_1/axis", "op": "Const", "attr": {"value": {"tensor": {"dtype": "DT_INT32", "tensorShape": {}}}, "dtype": {"type": "DT_INT32"}}}, {"name": "StatefulPartitionedCall/tf_bert_for_sequence_classification/bert/encoder/layer_._6/attention/self/key/Tensordot/Const_1", "op": "Const", "attr": {"value": {"tensor": {"dtype": "DT_INT32", "tensorShape": {"dim": [{"size": "1"}]}}}, "dtype": {"type": "DT_INT32"}}}, {"name": "StatefulPartitionedCall/tf_bert_for_sequence_classification/bert/encoder/layer_._6/attention/self/key/Tensordot/ReadVariableOp", "op": "Const", "attr": {"value": {"tensor": {"dtype": "DT_FLOAT", "tensorShape": {"dim": [{"size": "768"}, {"size": "768"}]}}}, "dtype": {"type": "DT_FLOAT"}}}, {"name": "StatefulPartitionedCall/tf_bert_for_sequence_classification/bert/encoder/layer_._6/attention/self/key/Tensordot/free", "op": "Const", "attr": {"value": {"tensor": {"dtype": "DT_INT32", "tensorShape": {"dim": [{"size": "2"}]}}}, "dtype": {"type": "DT_INT32"}}}, {"name": "StatefulPartitionedCall/tf_bert_for_sequence_classification/bert/encoder/layer_._6/attention/self/key/Tensordot/GatherV2/axis", "op": "Const", "attr": {"value": {"tensor": {"dtype": "DT_INT32", "tensorShape": {}}}, "dtype": {"type": "DT_INT32"}}}, {"name": "StatefulPartitionedCall/tf_bert_for_sequence_classification/bert/encoder/layer_._6/attention/self/key/Tensordot/Const_2", "op": "Const", "attr": {"value": {"tensor": {"dtype": "DT_INT32", "tensorShape": {"dim": [{"size": "1"}]}}}, "dtype": {"type": "DT_INT32"}}}, {"name": "StatefulPartitionedCall/tf_bert_for_sequence_classification/bert/encoder/layer_._6/attention/self/key/Tensordot/concat_1/axis", "op": "Const", "attr": {"value": {"tensor": {"dtype": "DT_INT32", "tensorShape": {}}}, "dtype": {"type": "DT_INT32"}}}, {"name": "StatefulPartitionedCall/tf_bert_for_sequence_classification/bert/encoder/layer_._6/attention/self/key/BiasAdd/ReadVariableOp", "op": "Const", "attr": {"value": {"tensor": {"dtype": "DT_FLOAT", "tensorShape": {"dim": [{"size": "768"}]}}}, "dtype": {"type": "DT_FLOAT"}}}, {"name": "StatefulPartitionedCall/tf_bert_for_sequence_classification/bert/encoder/layer_._6/attention/self/Reshape/shape/1", "op": "Const", "attr": {"value": {"tensor": {"dtype": "DT_INT32", "tensorShape": {}}}, "dtype": {"type": "DT_INT32"}}}, {"name": "StatefulPartitionedCall/tf_bert_for_sequence_classification/bert/encoder/layer_._6/attention/self/Reshape/shape/2", "op": "Const", "attr": {"value": {"tensor": {"dtype": "DT_INT32", "tensorShape": {}}}, "dtype": {"type": "DT_INT32"}}}, {"name": "StatefulPartitionedCall/tf_bert_for_sequence_classification/bert/encoder/layer_._6/attention/self/Reshape/shape/3", "op": "Const", "attr": {"value": {"tensor": {"dtype": "DT_INT32", "tensorShape": {}}}, "dtype": {"type": "DT_INT32"}}}, {"name": "StatefulPartitionedCall/tf_bert_for_sequence_classification/bert/encoder/layer_._6/attention/self/transpose/perm", "op": "Const", "attr": {"value": {"tensor": {"dtype": "DT_INT32", "tensorShape": {"dim": [{"size": "4"}]}}}, "dtype": {"type": "DT_INT32"}}}, {"name": "ConstantFolding/StatefulPartitionedCall/tf_bert_for_sequence_classification/bert/encoder/layer_._6/attention/self/truediv_recip", "op": "Const", "attr": {"value": {"tensor": {"dtype": "DT_FLOAT", "tensorShape": {}}}, "dtype": {"type": "DT_FLOAT"}}}, {"name": "StatefulPartitionedCall/tf_bert_for_sequence_classification/bert/encoder/layer_._6/attention/self/add_1/y", "op": "Const", "attr": {"value": {"tensor": {"dtype": "DT_FLOAT", "tensorShape": {}}}, "dtype": {"type": "DT_FLOAT"}}}, {"name": "StatefulPartitionedCall/tf_bert_for_sequence_classification/bert/encoder/layer_._6/attention/self/value/Tensordot/Const", "op": "Const", "attr": {"value": {"tensor": {"dtype": "DT_INT32", "tensorShape": {"dim": [{"size": "1"}]}}}, "dtype": {"type": "DT_INT32"}}}, {"name": "StatefulPartitionedCall/tf_bert_for_sequence_classification/bert/encoder/layer_._6/attention/self/value/Tensordot/axes", "op": "Const", "attr": {"value": {"tensor": {"dtype": "DT_INT32", "tensorShape": {"dim": [{"size": "1"}]}}}, "dtype": {"type": "DT_INT32"}}}, {"name": "StatefulPartitionedCall/tf_bert_for_sequence_classification/bert/encoder/layer_._6/attention/self/value/Tensordot/GatherV2_1/axis", "op": "Const", "attr": {"value": {"tensor": {"dtype": "DT_INT32", "tensorShape": {}}}, "dtype": {"type": "DT_INT32"}}}, {"name": "StatefulPartitionedCall/tf_bert_for_sequence_classification/bert/encoder/layer_._6/attention/self/value/Tensordot/Const_1", "op": "Const", "attr": {"value": {"tensor": {"dtype": "DT_INT32", "tensorShape": {"dim": [{"size": "1"}]}}}, "dtype": {"type": "DT_INT32"}}}, {"name": "StatefulPartitionedCall/tf_bert_for_sequence_classification/bert/encoder/layer_._6/attention/self/value/Tensordot/ReadVariableOp", "op": "Const", "attr": {"value": {"tensor": {"dtype": "DT_FLOAT", "tensorShape": {"dim": [{"size": "768"}, {"size": "768"}]}}}, "dtype": {"type": "DT_FLOAT"}}}, {"name": "StatefulPartitionedCall/tf_bert_for_sequence_classification/bert/encoder/layer_._6/attention/self/value/Tensordot/free", "op": "Const", "attr": {"value": {"tensor": {"dtype": "DT_INT32", "tensorShape": {"dim": [{"size": "2"}]}}}, "dtype": {"type": "DT_INT32"}}}, {"name": "StatefulPartitionedCall/tf_bert_for_sequence_classification/bert/encoder/layer_._6/attention/self/value/Tensordot/GatherV2/axis", "op": "Const", "attr": {"value": {"tensor": {"dtype": "DT_INT32", "tensorShape": {}}}, "dtype": {"type": "DT_INT32"}}}, {"name": "StatefulPartitionedCall/tf_bert_for_sequence_classification/bert/encoder/layer_._6/attention/self/value/Tensordot/Const_2", "op": "Const", "attr": {"value": {"tensor": {"dtype": "DT_INT32", "tensorShape": {"dim": [{"size": "1"}]}}}, "dtype": {"type": "DT_INT32"}}}, {"name": "StatefulPartitionedCall/tf_bert_for_sequence_classification/bert/encoder/layer_._6/attention/self/value/Tensordot/concat_1/axis", "op": "Const", "attr": {"value": {"tensor": {"dtype": "DT_INT32", "tensorShape": {}}}, "dtype": {"type": "DT_INT32"}}}, {"name": "StatefulPartitionedCall/tf_bert_for_sequence_classification/bert/encoder/layer_._6/attention/self/value/BiasAdd/ReadVariableOp", "op": "Const", "attr": {"value": {"tensor": {"dtype": "DT_FLOAT", "tensorShape": {"dim": [{"size": "768"}]}}}, "dtype": {"type": "DT_FLOAT"}}}, {"name": "StatefulPartitionedCall/tf_bert_for_sequence_classification/bert/encoder/layer_._6/attention/self/Reshape_1/shape/1", "op": "Const", "attr": {"value": {"tensor": {"dtype": "DT_INT32", "tensorShape": {}}}, "dtype": {"type": "DT_INT32"}}}, {"name": "StatefulPartitionedCall/tf_bert_for_sequence_classification/bert/encoder/layer_._6/attention/self/Reshape_1/shape/2", "op": "Const", "attr": {"value": {"tensor": {"dtype": "DT_INT32", "tensorShape": {}}}, "dtype": {"type": "DT_INT32"}}}, {"name": "StatefulPartitionedCall/tf_bert_for_sequence_classification/bert/encoder/layer_._6/attention/self/Reshape_1/shape/3", "op": "Const", "attr": {"value": {"tensor": {"dtype": "DT_INT32", "tensorShape": {}}}, "dtype": {"type": "DT_INT32"}}}, {"name": "StatefulPartitionedCall/tf_bert_for_sequence_classification/bert/encoder/layer_._6/attention/self/transpose_1/perm", "op": "Const", "attr": {"value": {"tensor": {"dtype": "DT_INT32", "tensorShape": {"dim": [{"size": "4"}]}}}, "dtype": {"type": "DT_INT32"}}}, {"name": "StatefulPartitionedCall/tf_bert_for_sequence_classification/bert/encoder/layer_._6/attention/self/transpose_3/perm", "op": "Const", "attr": {"value": {"tensor": {"dtype": "DT_INT32", "tensorShape": {"dim": [{"size": "4"}]}}}, "dtype": {"type": "DT_INT32"}}}, {"name": "StatefulPartitionedCall/tf_bert_for_sequence_classification/bert/encoder/layer_._6/attention/self/strided_slice/stack", "op": "Const", "attr": {"value": {"tensor": {"dtype": "DT_INT32", "tensorShape": {"dim": [{"size": "1"}]}}}, "dtype": {"type": "DT_INT32"}}}, {"name": "StatefulPartitionedCall/tf_bert_for_sequence_classification/bert/encoder/layer_._6/attention/self/strided_slice/stack_1", "op": "Const", "attr": {"value": {"tensor": {"dtype": "DT_INT32", "tensorShape": {"dim": [{"size": "1"}]}}}, "dtype": {"type": "DT_INT32"}}}, {"name": "StatefulPartitionedCall/tf_bert_for_sequence_classification/bert/encoder/layer_._6/attention/self/strided_slice/stack_2", "op": "Const", "attr": {"value": {"tensor": {"dtype": "DT_INT32", "tensorShape": {"dim": [{"size": "1"}]}}}, "dtype": {"type": "DT_INT32"}}}, {"name": "StatefulPartitionedCall/tf_bert_for_sequence_classification/bert/encoder/layer_._6/attention/self/Reshape_3/shape/1", "op": "Const", "attr": {"value": {"tensor": {"dtype": "DT_INT32", "tensorShape": {}}}, "dtype": {"type": "DT_INT32"}}}, {"name": "StatefulPartitionedCall/tf_bert_for_sequence_classification/bert/encoder/layer_._6/attention/self/Reshape_3/shape/2", "op": "Const", "attr": {"value": {"tensor": {"dtype": "DT_INT32", "tensorShape": {}}}, "dtype": {"type": "DT_INT32"}}}, {"name": "StatefulPartitionedCall/tf_bert_for_sequence_classification/bert/encoder/layer_._6/attention/output/dense/Tensordot/free", "op": "Const", "attr": {"value": {"tensor": {"dtype": "DT_INT32", "tensorShape": {"dim": [{"size": "2"}]}}}, "dtype": {"type": "DT_INT32"}}}, {"name": "StatefulPartitionedCall/tf_bert_for_sequence_classification/bert/encoder/layer_._6/attention/output/dense/Tensordot/GatherV2/axis", "op": "Const", "attr": {"value": {"tensor": {"dtype": "DT_INT32", "tensorShape": {}}}, "dtype": {"type": "DT_INT32"}}}, {"name": "StatefulPartitionedCall/tf_bert_for_sequence_classification/bert/encoder/layer_._6/attention/output/dense/Tensordot/Const_2", "op": "Const", "attr": {"value": {"tensor": {"dtype": "DT_INT32", "tensorShape": {"dim": [{"size": "1"}]}}}, "dtype": {"type": "DT_INT32"}}}, {"name": "StatefulPartitionedCall/tf_bert_for_sequence_classification/bert/encoder/layer_._6/attention/output/dense/Tensordot/concat_1/axis", "op": "Const", "attr": {"value": {"tensor": {"dtype": "DT_INT32", "tensorShape": {}}}, "dtype": {"type": "DT_INT32"}}}, {"name": "StatefulPartitionedCall/tf_bert_for_sequence_classification/bert/encoder/layer_._6/attention/output/dense/BiasAdd/ReadVariableOp", "op": "Const", "attr": {"value": {"tensor": {"dtype": "DT_FLOAT", "tensorShape": {"dim": [{"size": "768"}]}}}, "dtype": {"type": "DT_FLOAT"}}}, {"name": "StatefulPartitionedCall/tf_bert_for_sequence_classification/bert/encoder/layer_._5/output/LayerNorm/batchnorm/ReadVariableOp", "op": "Const", "attr": {"value": {"tensor": {"dtype": "DT_FLOAT", "tensorShape": {"dim": [{"size": "768"}]}}}, "dtype": {"type": "DT_FLOAT"}}}, {"name": "StatefulPartitionedCall/tf_bert_for_sequence_classification/bert/encoder/layer_._5/output/dense/Tensordot/Const", "op": "Const", "attr": {"value": {"tensor": {"dtype": "DT_INT32", "tensorShape": {"dim": [{"size": "1"}]}}}, "dtype": {"type": "DT_INT32"}}}, {"name": "StatefulPartitionedCall/tf_bert_for_sequence_classification/bert/encoder/layer_._5/output/dense/Tensordot/axes", "op": "Const", "attr": {"value": {"tensor": {"dtype": "DT_INT32", "tensorShape": {"dim": [{"size": "1"}]}}}, "dtype": {"type": "DT_INT32"}}}, {"name": "StatefulPartitionedCall/tf_bert_for_sequence_classification/bert/encoder/layer_._5/output/dense/Tensordot/GatherV2_1/axis", "op": "Const", "attr": {"value": {"tensor": {"dtype": "DT_INT32", "tensorShape": {}}}, "dtype": {"type": "DT_INT32"}}}, {"name": "StatefulPartitionedCall/tf_bert_for_sequence_classification/bert/encoder/layer_._5/output/dense/Tensordot/Const_1", "op": "Const", "attr": {"value": {"tensor": {"dtype": "DT_INT32", "tensorShape": {"dim": [{"size": "1"}]}}}, "dtype": {"type": "DT_INT32"}}}, {"name": "StatefulPartitionedCall/tf_bert_for_sequence_classification/bert/encoder/layer_._5/output/dense/Tensordot/ReadVariableOp", "op": "Const", "attr": {"value": {"tensor": {"dtype": "DT_FLOAT", "tensorShape": {"dim": [{"size": "3072"}, {"size": "768"}]}}}, "dtype": {"type": "DT_FLOAT"}}}, {"name": "StatefulPartitionedCall/tf_bert_for_sequence_classification/bert/encoder/layer_._5/intermediate/Gelu/mul/x", "op": "Const", "attr": {"value": {"tensor": {"dtype": "DT_FLOAT", "tensorShape": {}}}, "dtype": {"type": "DT_FLOAT"}}}, {"name": "StatefulPartitionedCall/tf_bert_for_sequence_classification/bert/encoder/layer_._5/intermediate/Gelu/add/x", "op": "Const", "attr": {"value": {"tensor": {"dtype": "DT_FLOAT", "tensorShape": {}}}, "dtype": {"type": "DT_FLOAT"}}}, {"name": "StatefulPartitionedCall/tf_bert_for_sequence_classification/bert/encoder/layer_._5/intermediate/dense/Tensordot/Const", "op": "Const", "attr": {"value": {"tensor": {"dtype": "DT_INT32", "tensorShape": {"dim": [{"size": "1"}]}}}, "dtype": {"type": "DT_INT32"}}}, {"name": "StatefulPartitionedCall/tf_bert_for_sequence_classification/bert/encoder/layer_._5/intermediate/dense/Tensordot/axes", "op": "Const", "attr": {"value": {"tensor": {"dtype": "DT_INT32", "tensorShape": {"dim": [{"size": "1"}]}}}, "dtype": {"type": "DT_INT32"}}}, {"name": "StatefulPartitionedCall/tf_bert_for_sequence_classification/bert/encoder/layer_._5/intermediate/dense/Tensordot/GatherV2_1/axis", "op": "Const", "attr": {"value": {"tensor": {"dtype": "DT_INT32", "tensorShape": {}}}, "dtype": {"type": "DT_INT32"}}}, {"name": "StatefulPartitionedCall/tf_bert_for_sequence_classification/bert/encoder/layer_._5/intermediate/dense/Tensordot/Const_1", "op": "Const", "attr": {"value": {"tensor": {"dtype": "DT_INT32", "tensorShape": {"dim": [{"size": "1"}]}}}, "dtype": {"type": "DT_INT32"}}}, {"name": "StatefulPartitionedCall/tf_bert_for_sequence_classification/bert/encoder/layer_._5/intermediate/dense/Tensordot/ReadVariableOp", "op": "Const", "attr": {"value": {"tensor": {"dtype": "DT_FLOAT", "tensorShape": {"dim": [{"size": "768"}, {"size": "3072"}]}}}, "dtype": {"type": "DT_FLOAT"}}}, {"name": "StatefulPartitionedCall/tf_bert_for_sequence_classification/bert/encoder/layer_._5/intermediate/dense/Tensordot/free", "op": "Const", "attr": {"value": {"tensor": {"dtype": "DT_INT32", "tensorShape": {"dim": [{"size": "2"}]}}}, "dtype": {"type": "DT_INT32"}}}, {"name": "StatefulPartitionedCall/tf_bert_for_sequence_classification/bert/encoder/layer_._5/intermediate/dense/Tensordot/GatherV2/axis", "op": "Const", "attr": {"value": {"tensor": {"dtype": "DT_INT32", "tensorShape": {}}}, "dtype": {"type": "DT_INT32"}}}, {"name": "StatefulPartitionedCall/tf_bert_for_sequence_classification/bert/encoder/layer_._5/intermediate/dense/Tensordot/Const_2", "op": "Const", "attr": {"value": {"tensor": {"dtype": "DT_INT32", "tensorShape": {"dim": [{"size": "1"}]}}}, "dtype": {"type": "DT_INT32"}}}, {"name": "StatefulPartitionedCall/tf_bert_for_sequence_classification/bert/encoder/layer_._5/intermediate/dense/Tensordot/concat_1/axis", "op": "Const", "attr": {"value": {"tensor": {"dtype": "DT_INT32", "tensorShape": {}}}, "dtype": {"type": "DT_INT32"}}}, {"name": "StatefulPartitionedCall/tf_bert_for_sequence_classification/bert/encoder/layer_._5/intermediate/dense/BiasAdd/ReadVariableOp", "op": "Const", "attr": {"value": {"tensor": {"dtype": "DT_FLOAT", "tensorShape": {"dim": [{"size": "3072"}]}}}, "dtype": {"type": "DT_FLOAT"}}}, {"name": "ConstantFolding/StatefulPartitionedCall/tf_bert_for_sequence_classification/bert/encoder/layer_._5/intermediate/Gelu/truediv_recip", "op": "Const", "attr": {"value": {"tensor": {"dtype": "DT_FLOAT", "tensorShape": {}}}, "dtype": {"type": "DT_FLOAT"}}}, {"name": "StatefulPartitionedCall/tf_bert_for_sequence_classification/bert/encoder/layer_._5/output/dense/Tensordot/free", "op": "Const", "attr": {"value": {"tensor": {"dtype": "DT_INT32", "tensorShape": {"dim": [{"size": "2"}]}}}, "dtype": {"type": "DT_INT32"}}}, {"name": "StatefulPartitionedCall/tf_bert_for_sequence_classification/bert/encoder/layer_._5/output/dense/Tensordot/GatherV2/axis", "op": "Const", "attr": {"value": {"tensor": {"dtype": "DT_INT32", "tensorShape": {}}}, "dtype": {"type": "DT_INT32"}}}, {"name": "StatefulPartitionedCall/tf_bert_for_sequence_classification/bert/encoder/layer_._5/output/dense/Tensordot/Const_2", "op": "Const", "attr": {"value": {"tensor": {"dtype": "DT_INT32", "tensorShape": {"dim": [{"size": "1"}]}}}, "dtype": {"type": "DT_INT32"}}}, {"name": "StatefulPartitionedCall/tf_bert_for_sequence_classification/bert/encoder/layer_._5/output/dense/Tensordot/concat_1/axis", "op": "Const", "attr": {"value": {"tensor": {"dtype": "DT_INT32", "tensorShape": {}}}, "dtype": {"type": "DT_INT32"}}}, {"name": "StatefulPartitionedCall/tf_bert_for_sequence_classification/bert/encoder/layer_._5/output/dense/BiasAdd/ReadVariableOp", "op": "Const", "attr": {"value": {"tensor": {"dtype": "DT_FLOAT", "tensorShape": {"dim": [{"size": "768"}]}}}, "dtype": {"type": "DT_FLOAT"}}}, {"name": "StatefulPartitionedCall/tf_bert_for_sequence_classification/bert/encoder/layer_._5/attention/output/LayerNorm/batchnorm/ReadVariableOp", "op": "Const", "attr": {"value": {"tensor": {"dtype": "DT_FLOAT", "tensorShape": {"dim": [{"size": "768"}]}}}, "dtype": {"type": "DT_FLOAT"}}}, {"name": "StatefulPartitionedCall/tf_bert_for_sequence_classification/bert/encoder/layer_._5/attention/output/dense/Tensordot/Const", "op": "Const", "attr": {"value": {"tensor": {"dtype": "DT_INT32", "tensorShape": {"dim": [{"size": "1"}]}}}, "dtype": {"type": "DT_INT32"}}}, {"name": "StatefulPartitionedCall/tf_bert_for_sequence_classification/bert/encoder/layer_._5/attention/output/dense/Tensordot/axes", "op": "Const", "attr": {"value": {"tensor": {"dtype": "DT_INT32", "tensorShape": {"dim": [{"size": "1"}]}}}, "dtype": {"type": "DT_INT32"}}}, {"name": "StatefulPartitionedCall/tf_bert_for_sequence_classification/bert/encoder/layer_._5/attention/output/dense/Tensordot/GatherV2_1/axis", "op": "Const", "attr": {"value": {"tensor": {"dtype": "DT_INT32", "tensorShape": {}}}, "dtype": {"type": "DT_INT32"}}}, {"name": "StatefulPartitionedCall/tf_bert_for_sequence_classification/bert/encoder/layer_._5/attention/output/dense/Tensordot/Const_1", "op": "Const", "attr": {"value": {"tensor": {"dtype": "DT_INT32", "tensorShape": {"dim": [{"size": "1"}]}}}, "dtype": {"type": "DT_INT32"}}}, {"name": "StatefulPartitionedCall/tf_bert_for_sequence_classification/bert/encoder/layer_._5/attention/output/dense/Tensordot/ReadVariableOp", "op": "Const", "attr": {"value": {"tensor": {"dtype": "DT_FLOAT", "tensorShape": {"dim": [{"size": "768"}, {"size": "768"}]}}}, "dtype": {"type": "DT_FLOAT"}}}, {"name": "StatefulPartitionedCall/tf_bert_for_sequence_classification/bert/encoder/layer_._5/attention/self/query/Tensordot/Const", "op": "Const", "attr": {"value": {"tensor": {"dtype": "DT_INT32", "tensorShape": {"dim": [{"size": "1"}]}}}, "dtype": {"type": "DT_INT32"}}}, {"name": "StatefulPartitionedCall/tf_bert_for_sequence_classification/bert/encoder/layer_._5/attention/self/query/Tensordot/axes", "op": "Const", "attr": {"value": {"tensor": {"dtype": "DT_INT32", "tensorShape": {"dim": [{"size": "1"}]}}}, "dtype": {"type": "DT_INT32"}}}, {"name": "StatefulPartitionedCall/tf_bert_for_sequence_classification/bert/encoder/layer_._5/attention/self/query/Tensordot/GatherV2_1/axis", "op": "Const", "attr": {"value": {"tensor": {"dtype": "DT_INT32", "tensorShape": {}}}, "dtype": {"type": "DT_INT32"}}}, {"name": "StatefulPartitionedCall/tf_bert_for_sequence_classification/bert/encoder/layer_._5/attention/self/query/Tensordot/Const_1", "op": "Const", "attr": {"value": {"tensor": {"dtype": "DT_INT32", "tensorShape": {"dim": [{"size": "1"}]}}}, "dtype": {"type": "DT_INT32"}}}, {"name": "StatefulPartitionedCall/tf_bert_for_sequence_classification/bert/encoder/layer_._5/attention/self/query/Tensordot/ReadVariableOp", "op": "Const", "attr": {"value": {"tensor": {"dtype": "DT_FLOAT", "tensorShape": {"dim": [{"size": "768"}, {"size": "768"}]}}}, "dtype": {"type": "DT_FLOAT"}}}, {"name": "StatefulPartitionedCall/tf_bert_for_sequence_classification/bert/encoder/layer_._5/attention/self/query/Tensordot/free", "op": "Const", "attr": {"value": {"tensor": {"dtype": "DT_INT32", "tensorShape": {"dim": [{"size": "2"}]}}}, "dtype": {"type": "DT_INT32"}}}, {"name": "StatefulPartitionedCall/tf_bert_for_sequence_classification/bert/encoder/layer_._5/attention/self/query/Tensordot/GatherV2/axis", "op": "Const", "attr": {"value": {"tensor": {"dtype": "DT_INT32", "tensorShape": {}}}, "dtype": {"type": "DT_INT32"}}}, {"name": "StatefulPartitionedCall/tf_bert_for_sequence_classification/bert/encoder/layer_._5/attention/self/query/Tensordot/Const_2", "op": "Const", "attr": {"value": {"tensor": {"dtype": "DT_INT32", "tensorShape": {"dim": [{"size": "1"}]}}}, "dtype": {"type": "DT_INT32"}}}, {"name": "StatefulPartitionedCall/tf_bert_for_sequence_classification/bert/encoder/layer_._5/attention/self/query/Tensordot/concat_1/axis", "op": "Const", "attr": {"value": {"tensor": {"dtype": "DT_INT32", "tensorShape": {}}}, "dtype": {"type": "DT_INT32"}}}, {"name": "StatefulPartitionedCall/tf_bert_for_sequence_classification/bert/encoder/layer_._5/attention/self/query/BiasAdd/ReadVariableOp", "op": "Const", "attr": {"value": {"tensor": {"dtype": "DT_FLOAT", "tensorShape": {"dim": [{"size": "768"}]}}}, "dtype": {"type": "DT_FLOAT"}}}, {"name": "StatefulPartitionedCall/tf_bert_for_sequence_classification/bert/encoder/layer_._5/attention/self/Reshape_2/shape/1", "op": "Const", "attr": {"value": {"tensor": {"dtype": "DT_INT32", "tensorShape": {}}}, "dtype": {"type": "DT_INT32"}}}, {"name": "StatefulPartitionedCall/tf_bert_for_sequence_classification/bert/encoder/layer_._5/attention/self/Reshape_2/shape/2", "op": "Const", "attr": {"value": {"tensor": {"dtype": "DT_INT32", "tensorShape": {}}}, "dtype": {"type": "DT_INT32"}}}, {"name": "StatefulPartitionedCall/tf_bert_for_sequence_classification/bert/encoder/layer_._5/attention/self/Reshape_2/shape/3", "op": "Const", "attr": {"value": {"tensor": {"dtype": "DT_INT32", "tensorShape": {}}}, "dtype": {"type": "DT_INT32"}}}, {"name": "StatefulPartitionedCall/tf_bert_for_sequence_classification/bert/encoder/layer_._5/attention/self/transpose_2/perm", "op": "Const", "attr": {"value": {"tensor": {"dtype": "DT_INT32", "tensorShape": {"dim": [{"size": "4"}]}}}, "dtype": {"type": "DT_INT32"}}}, {"name": "StatefulPartitionedCall/tf_bert_for_sequence_classification/bert/encoder/layer_._5/attention/self/key/Tensordot/Const", "op": "Const", "attr": {"value": {"tensor": {"dtype": "DT_INT32", "tensorShape": {"dim": [{"size": "1"}]}}}, "dtype": {"type": "DT_INT32"}}}, {"name": "StatefulPartitionedCall/tf_bert_for_sequence_classification/bert/encoder/layer_._5/attention/self/key/Tensordot/axes", "op": "Const", "attr": {"value": {"tensor": {"dtype": "DT_INT32", "tensorShape": {"dim": [{"size": "1"}]}}}, "dtype": {"type": "DT_INT32"}}}, {"name": "StatefulPartitionedCall/tf_bert_for_sequence_classification/bert/encoder/layer_._5/attention/self/key/Tensordot/GatherV2_1/axis", "op": "Const", "attr": {"value": {"tensor": {"dtype": "DT_INT32", "tensorShape": {}}}, "dtype": {"type": "DT_INT32"}}}, {"name": "StatefulPartitionedCall/tf_bert_for_sequence_classification/be…
ation/bert/encoder/layer_._1/attention/self/value/Tensordot/ReadVariableOp", "shape": [768, 768], "dtype": "float32", "quantization": {"dtype": "uint16", "min": -0.21267896576518733, "scale": 6.185584904318627e-06, "original_dtype": "float32"}}, {"name": "StatefulPartitionedCall/tf_bert_for_sequence_classification/bert/encoder/layer_._1/attention/self/value/Tensordot/free", "shape": [2], "dtype": "int32"}, {"name": "StatefulPartitionedCall/tf_bert_for_sequence_classification/bert/encoder/layer_._1/attention/self/value/Tensordot/GatherV2/axis", "shape": [], "dtype": "int32"}, {"name": "StatefulPartitionedCall/tf_bert_for_sequence_classification/bert/encoder/layer_._1/attention/self/value/Tensordot/Const_2", "shape": [1], "dtype": "int32"}, {"name": "StatefulPartitionedCall/tf_bert_for_sequence_classification/bert/encoder/layer_._1/attention/self/value/Tensordot/concat_1/axis", "shape": [], "dtype": "int32"}, {"name": "StatefulPartitionedCall/tf_bert_for_sequence_classification/bert/encoder/layer_._1/attention/self/value/BiasAdd/ReadVariableOp", "shape": [768], "dtype": "float32", "quantization": {"dtype": "uint16", "min": -0.4796649654285671, "scale": 1.1115964066384721e-05, "original_dtype": "float32"}}, {"name": "StatefulPartitionedCall/tf_bert_for_sequence_classification/bert/encoder/layer_._1/attention/self/Reshape_1/shape/1", "shape": [], "dtype": "int32"}, {"name": "StatefulPartitionedCall/tf_bert_for_sequence_classification/bert/encoder/layer_._1/attention/self/Reshape_1/shape/2", "shape": [], "dtype": "int32"}, {"name": "StatefulPartitionedCall/tf_bert_for_sequence_classification/bert/encoder/layer_._1/attention/self/Reshape_1/shape/3", "shape": [], "dtype": "int32"}, {"name": "StatefulPartitionedCall/tf_bert_for_sequence_classification/bert/encoder/layer_._1/attention/self/transpose_1/perm", "shape": [4], "dtype": "int32"}, {"name": "StatefulPartitionedCall/tf_bert_for_sequence_classification/bert/encoder/layer_._1/attention/self/transpose_3/perm", "shape": [4], "dtype": "int32"}, {"name": "StatefulPartitionedCall/tf_bert_for_sequence_classification/bert/encoder/layer_._1/attention/self/strided_slice/stack", "shape": [1], "dtype": "int32"}, {"name": "StatefulPartitionedCall/tf_bert_for_sequence_classification/bert/encoder/layer_._1/attention/self/strided_slice/stack_1", "shape": [1], "dtype": "int32"}, {"name": "StatefulPartitionedCall/tf_bert_for_sequence_classification/bert/encoder/layer_._1/attention/self/strided_slice/stack_2", "shape": [1], "dtype": "int32"}, {"name": "StatefulPartitionedCall/tf_bert_for_sequence_classification/bert/encoder/layer_._1/attention/self/Reshape_3/shape/1", "shape": [], "dtype": "int32"}, {"name": "StatefulPartitionedCall/tf_bert_for_sequence_classification/bert/encoder/layer_._1/attention/self/Reshape_3/shape/2", "shape": [], "dtype": "int32"}, {"name": "StatefulPartitionedCall/tf_bert_for_sequence_classification/bert/encoder/layer_._1/attention/output/dense/Tensordot/free", "shape": [2], "dtype": "int32"}, {"name": "StatefulPartitionedCall/tf_bert_for_sequence_classification/bert/encoder/layer_._1/attention/output/dense/Tensordot/GatherV2/axis", "shape": [], "dtype": "int32"}, {"name": "StatefulPartitionedCall/tf_bert_for_sequence_classification/bert/encoder/layer_._1/attention/output/dense/Tensordot/Const_2", "shape": [1], "dtype": "int32"}, {"name": "StatefulPartitionedCall/tf_bert_for_sequence_classification/bert/encoder/layer_._1/attention/output/dense/Tensordot/concat_1/axis", "shape": [], "dtype": "int32"}, {"name": "StatefulPartitionedCall/tf_bert_for_sequence_classification/bert/encoder/layer_._1/attention/output/dense/BiasAdd/ReadVariableOp", "shape": [768], "dtype": "float32", "quantization": {"dtype": "uint16", "min": -0.2858353612178649, "scale": 8.01422534676905e-06, "original_dtype": "float32"}}, {"name": "StatefulPartitionedCall/tf_bert_for_sequence_classification/bert/encoder/layer_._0/output/LayerNorm/batchnorm/ReadVariableOp", "shape": [768], "dtype": "float32", "quantization": {"dtype": "uint16", "min": -1.3239883507922448, "scale": 2.6577038978506227e-05, "original_dtype": "float32"}}, {"name": "StatefulPartitionedCall/tf_bert_for_sequence_classification/bert/encoder/layer_._0/output/dense/Tensordot/Const", "shape": [1], "dtype": "int32"}, {"name": "StatefulPartitionedCall/tf_bert_for_sequence_classification/bert/encoder/layer_._0/output/dense/Tensordot/axes", "shape": [1], "dtype": "int32"}, {"name": "StatefulPartitionedCall/tf_bert_for_sequence_classification/bert/encoder/layer_._0/output/dense/Tensordot/GatherV2_1/axis", "shape": [], "dtype": "int32"}, {"name": "StatefulPartitionedCall/tf_bert_for_sequence_classification/bert/encoder/layer_._0/output/dense/Tensordot/Const_1", "shape": [1], "dtype": "int32"}, {"name": "StatefulPartitionedCall/tf_bert_for_sequence_classification/bert/encoder/layer_._0/output/dense/Tensordot/ReadVariableOp", "shape": [3072, 768], "dtype": "float32", "quantization": {"dtype": "uint16", "min": -1.6086871747686087, "scale": 3.557468321027441e-05, "original_dtype": "float32"}}, {"name": "StatefulPartitionedCall/tf_bert_for_sequence_classification/bert/encoder/layer_._0/intermediate/Gelu/mul/x", "shape": [], "dtype": "float32", "quantization": {"dtype": "uint16", "min": 0.5, "scale": 1.0, "original_dtype": "float32"}}, {"name": "StatefulPartitionedCall/tf_bert_for_sequence_classification/bert/encoder/layer_._0/intermediate/Gelu/add/x", "shape": [], "dtype": "float32", "quantization": {"dtype": "uint16", "min": 1.0, "scale": 1.0, "original_dtype": "float32"}}, {"name": "StatefulPartitionedCall/tf_bert_for_sequence_classification/bert/encoder/layer_._0/intermediate/dense/Tensordot/Const", "shape": [1], "dtype": "int32"}, {"name": "StatefulPartitionedCall/tf_bert_for_sequence_classification/bert/encoder/layer_._0/intermediate/dense/Tensordot/axes", "shape": [1], "dtype": "int32"}, {"name": "StatefulPartitionedCall/tf_bert_for_sequence_classification/bert/encoder/layer_._0/intermediate/dense/Tensordot/GatherV2_1/axis", "shape": [], "dtype": "int32"}, {"name": "StatefulPartitionedCall/tf_bert_for_sequence_classification/bert/encoder/layer_._0/intermediate/dense/Tensordot/Const_1", "shape": [1], "dtype": "int32"}, {"name": "StatefulPartitionedCall/tf_bert_for_sequence_classification/bert/encoder/layer_._0/intermediate/dense/Tensordot/ReadVariableOp", "shape": [768, 3072], "dtype": "float32", "quantization": {"dtype": "uint16", "min": -0.2897249319755832, "scale": 8.961211591833943e-06, "original_dtype": "float32"}}, {"name": "StatefulPartitionedCall/tf_bert_for_sequence_classification/bert/encoder/layer_._0/intermediate/dense/Tensordot/free", "shape": [2], "dtype": "int32"}, {"name": "StatefulPartitionedCall/tf_bert_for_sequence_classification/bert/encoder/layer_._0/intermediate/dense/Tensordot/GatherV2/axis", "shape": [], "dtype": "int32"}, {"name": "StatefulPartitionedCall/tf_bert_for_sequence_classification/bert/encoder/layer_._0/intermediate/dense/Tensordot/Const_2", "shape": [1], "dtype": "int32"}, {"name": "StatefulPartitionedCall/tf_bert_for_sequence_classification/bert/encoder/layer_._0/intermediate/dense/Tensordot/concat_1/axis", "shape": [], "dtype": "int32"}, {"name": "StatefulPartitionedCall/tf_bert_for_sequence_classification/bert/encoder/layer_._0/intermediate/dense/BiasAdd/ReadVariableOp", "shape": [3072], "dtype": "float32", "quantization": {"dtype": "uint16", "min": -0.34070663473249035, "scale": 1.1296639082642253e-05, "original_dtype": "float32"}}, {"name": "ConstantFolding/StatefulPartitionedCall/tf_bert_for_sequence_classification/bert/encoder/layer_._0/intermediate/Gelu/truediv_recip", "shape": [], "dtype": "float32", "quantization": {"dtype": "uint16", "min": 0.7071067690849304, "scale": 1.0, "original_dtype": "float32"}}, {"name": "StatefulPartitionedCall/tf_bert_for_sequence_classification/bert/encoder/layer_._0/output/dense/Tensordot/free", "shape": [2], "dtype": "int32"}, {"name": "StatefulPartitionedCall/tf_bert_for_sequence_classification/bert/encoder/layer_._0/output/dense/Tensordot/GatherV2/axis", "shape": [], "dtype": "int32"}, {"name": "StatefulPartitionedCall/tf_bert_for_sequence_classification/bert/encoder/layer_._0/output/dense/Tensordot/Const_2", "shape": [1], "dtype": "int32"}, {"name": "StatefulPartitionedCall/tf_bert_for_sequence_classification/bert/encoder/layer_._0/output/dense/Tensordot/concat_1/axis", "shape": [], "dtype": "int32"}, {"name": "StatefulPartitionedCall/tf_bert_for_sequence_classification/bert/encoder/layer_._0/output/dense/BiasAdd/ReadVariableOp", "shape": [768], "dtype": "float32", "quantization": {"dtype": "uint16", "min": -0.5221754148694573, "scale": 1.3104839001893724e-05, "original_dtype": "float32"}}, {"name": "StatefulPartitionedCall/tf_bert_for_sequence_classification/bert/encoder/layer_._0/attention/output/LayerNorm/batchnorm/ReadVariableOp", "shape": [768], "dtype": "float32", "quantization": {"dtype": "uint16", "min": -4.182543786847002, "scale": 7.650528236413026e-05, "original_dtype": "float32"}}, {"name": "StatefulPartitionedCall/tf_bert_for_sequence_classification/bert/encoder/layer_._0/attention/output/dense/Tensordot/Const", "shape": [1], "dtype": "int32"}, {"name": "StatefulPartitionedCall/tf_bert_for_sequence_classification/bert/encoder/layer_._0/attention/output/dense/Tensordot/axes", "shape": [1], "dtype": "int32"}, {"name": "StatefulPartitionedCall/tf_bert_for_sequence_classification/bert/encoder/layer_._0/attention/output/dense/Tensordot/GatherV2_1/axis", "shape": [], "dtype": "int32"}, {"name": "StatefulPartitionedCall/tf_bert_for_sequence_classification/bert/encoder/layer_._0/attention/output/dense/Tensordot/Const_1", "shape": [1], "dtype": "int32"}, {"name": "StatefulPartitionedCall/tf_bert_for_sequence_classification/bert/encoder/layer_._0/attention/output/dense/Tensordot/ReadVariableOp", "shape": [768, 768], "dtype": "float32", "quantization": {"dtype": "uint16", "min": -0.49086403287256525, "scale": 1.6479136296792736e-05, "original_dtype": "float32"}}, {"name": "StatefulPartitionedCall/tf_bert_for_sequence_classification/bert/encoder/layer_._0/attention/self/query/Tensordot/Const", "shape": [1], "dtype": "int32"}, {"name": "StatefulPartitionedCall/tf_bert_for_sequence_classification/bert/encoder/layer_._0/attention/self/query/Tensordot/axes", "shape": [1], "dtype": "int32"}, {"name": "StatefulPartitionedCall/tf_bert_for_sequence_classification/bert/encoder/layer_._0/attention/self/query/Tensordot/GatherV2_1/axis", "shape": [], "dtype": "int32"}, {"name": "StatefulPartitionedCall/tf_bert_for_sequence_classification/bert/encoder/layer_._0/attention/self/query/Tensordot/Const_1", "shape": [1], "dtype": "int32"}, {"name": "StatefulPartitionedCall/tf_bert_for_sequence_classification/bert/encoder/layer_._0/attention/self/query/Tensordot/ReadVariableOp", "shape": [768, 768], "dtype": "float32", "quantization": {"dtype": "uint16", "min": -0.5244875507568653, "scale": 1.475974534281315e-05, "original_dtype": "float32"}}, {"name": "StatefulPartitionedCall/tf_bert_for_sequence_classification/bert/encoder/layer_._0/attention/self/query/Tensordot/free", "shape": [2], "dtype": "int32"}, {"name": "StatefulPartitionedCall/tf_bert_for_sequence_classification/bert/encoder/layer_._0/attention/self/query/Tensordot/GatherV2/axis", "shape": [], "dtype": "int32"}, {"name": "StatefulPartitionedCall/tf_bert_for_sequence_classification/bert/encoder/layer_._0/attention/self/query/Tensordot/Const_2", "shape": [1], "dtype": "int32"}, {"name": "StatefulPartitionedCall/tf_bert_for_sequence_classification/bert/encoder/layer_._0/attention/self/query/Tensordot/concat_1/axis", "shape": [], "dtype": "int32"}, {"name": "StatefulPartitionedCall/tf_bert_for_sequence_classification/bert/encoder/layer_._0/attention/self/query/BiasAdd/ReadVariableOp", "shape": [768], "dtype": "float32", "quantization": {"dtype": "uint16", "min": -1.0440885179828814, "scale": 2.8988769691614552e-05, "original_dtype": "float32"}}, {"name": "StatefulPartitionedCall/tf_bert_for_sequence_classification/bert/encoder/layer_._0/attention/self/Reshape_2/shape/1", "shape": [], "dtype": "int32"}, {"name": "StatefulPartitionedCall/tf_bert_for_sequence_classification/bert/encoder/layer_._0/attention/self/Reshape_2/shape/2", "shape": [], "dtype": "int32"}, {"name": "StatefulPartitionedCall/tf_bert_for_sequence_classification/bert/encoder/layer_._0/attention/self/Reshape_2/shape/3", "shape": [], "dtype": "int32"}, {"name": "StatefulPartitionedCall/tf_bert_for_sequence_classification/bert/encoder/layer_._0/attention/self/transpose_2/perm", "shape": [4], "dtype": "int32"}, {"name": "StatefulPartitionedCall/tf_bert_for_sequence_classification/bert/encoder/layer_._0/attention/self/key/Tensordot/Const", "shape": [1], "dtype": "int32"}, {"name": "StatefulPartitionedCall/tf_bert_for_sequence_classification/bert/encoder/layer_._0/attention/self/key/Tensordot/axes", "shape": [1], "dtype": "int32"}, {"name": "StatefulPartitionedCall/tf_bert_for_sequence_classification/bert/encoder/layer_._0/attention/self/key/Tensordot/GatherV2_1/axis", "shape": [], "dtype": "int32"}, {"name": "StatefulPartitionedCall/tf_bert_for_sequence_classification/bert/encoder/layer_._0/attention/self/key/Tensordot/Const_1", "shape": [1], "dtype": "int32"}, {"name": "StatefulPartitionedCall/tf_bert_for_sequence_classification/bert/encoder/layer_._0/attention/self/key/Tensordot/ReadVariableOp", "shape": [768, 768], "dtype": "float32", "quantization": {"dtype": "uint16", "min": -0.6929595119540056, "scale": 2.3210058680131487e-05, "original_dtype": "float32"}}, {"name": "StatefulPartitionedCall/tf_bert_for_sequence_classification/bert/encoder/layer_._0/attention/self/key/Tensordot/free", "shape": [2], "dtype": "int32"}, {"name": "StatefulPartitionedCall/tf_bert_for_sequence_classification/bert/encoder/layer_._0/attention/self/key/Tensordot/GatherV2/axis", "shape": [], "dtype": "int32"}, {"name": "StatefulPartitionedCall/tf_bert_for_sequence_classification/bert/encoder/layer_._0/attention/self/key/Tensordot/Const_2", "shape": [1], "dtype": "int32"}, {"name": "StatefulPartitionedCall/tf_bert_for_sequence_classification/bert/encoder/layer_._0/attention/self/key/Tensordot/concat_1/axis", "shape": [], "dtype": "int32"}, {"name": "StatefulPartitionedCall/tf_bert_for_sequence_classification/bert/encoder/layer_._0/attention/self/key/BiasAdd/ReadVariableOp", "shape": [768], "dtype": "float32", "quantization": {"dtype": "uint16", "min": -1.0663517821832809e-06, "scale": 3.1842802860226974e-11, "original_dtype": "float32"}}, {"name": "StatefulPartitionedCall/tf_bert_for_sequence_classification/bert/encoder/layer_._0/attention/self/Reshape/shape/1", "shape": [], "dtype": "int32"}, {"name": "StatefulPartitionedCall/tf_bert_for_sequence_classification/bert/encoder/layer_._0/attention/self/Reshape/shape/2", "shape": [], "dtype": "int32"}, {"name": "StatefulPartitionedCall/tf_bert_for_sequence_classification/bert/encoder/layer_._0/attention/self/Reshape/shape/3", "shape": [], "dtype": "int32"}, {"name": "StatefulPartitionedCall/tf_bert_for_sequence_classification/bert/encoder/layer_._0/attention/self/transpose/perm", "shape": [4], "dtype": "int32"}, {"name": "ConstantFolding/StatefulPartitionedCall/tf_bert_for_sequence_classification/bert/encoder/layer_._0/attention/self/truediv_recip", "shape": [], "dtype": "float32", "quantization": {"dtype": "uint16", "min": 0.125, "scale": 1.0, "original_dtype": "float32"}}, {"name": "StatefulPartitionedCall/tf_bert_for_sequence_classification/bert/encoder/layer_._0/attention/self/add_1/y", "shape": [], "dtype": "float32", "quantization": {"dtype": "uint16", "min": 9.999999717180685e-10, "scale": 1.0, "original_dtype": "float32"}}, {"name": "StatefulPartitionedCall/tf_bert_for_sequence_classification/bert/Const", "shape": [], "dtype": "float32", "quantization": {"dtype": "uint16", "min": 1.0, "scale": 1.0, "original_dtype": "float32"}}, {"name": "StatefulPartitionedCall/tf_bert_for_sequence_classification/bert/strided_slice_2/stack", "shape": [1], "dtype": "int32"}, {"name": "StatefulPartitionedCall/tf_bert_for_sequence_classification/bert/strided_slice_2/stack_1", "shape": [1], "dtype": "int32"}, {"name": "StatefulPartitionedCall/tf_bert_for_sequence_classification/bert/strided_slice_2/stack_2", "shape": [1], "dtype": "int32"}, {"name": "StatefulPartitionedCall/tf_bert_for_sequence_classification/bert/Reshape/shape/1", "shape": [], "dtype": "int32"}, {"name": "StatefulPartitionedCall/tf_bert_for_sequence_classification/bert/Reshape/shape/2", "shape": [], "dtype": "int32"}, {"name": "StatefulPartitionedCall/tf_bert_for_sequence_classification/bert/strided_slice_3/stack", "shape": [1], "dtype": "int32"}, {"name": "StatefulPartitionedCall/tf_bert_for_sequence_classification/bert/strided_slice_3/stack_1", "shape": [1], "dtype": "int32"}, {"name": "StatefulPartitionedCall/tf_bert_for_sequence_classification/bert/strided_slice_3/stack_2", "shape": [1], "dtype": "int32"}, {"name": "StatefulPartitionedCall/tf_bert_for_sequence_classification/bert/Const_1", "shape": [], "dtype": "float32", "quantization": {"dtype": "uint16", "min": -10000.0, "scale": 1.0, "original_dtype": "float32"}}, {"name": "StatefulPartitionedCall/tf_bert_for_sequence_classification/bert/encoder/layer_._0/attention/self/value/Tensordot/Const", "shape": [1], "dtype": "int32"}, {"name": "StatefulPartitionedCall/tf_bert_for_sequence_classification/bert/encoder/layer_._0/attention/self/value/Tensordot/axes", "shape": [1], "dtype": "int32"}, {"name": "StatefulPartitionedCall/tf_bert_for_sequence_classification/bert/encoder/layer_._0/attention/self/value/Tensordot/GatherV2_1/axis", "shape": [], "dtype": "int32"}, {"name": "StatefulPartitionedCall/tf_bert_for_sequence_classification/bert/encoder/layer_._0/attention/self/value/Tensordot/Const_1", "shape": [1], "dtype": "int32"}, {"name": "StatefulPartitionedCall/tf_bert_for_sequence_classification/bert/encoder/layer_._0/attention/self/value/Tensordot/ReadVariableOp", "shape": [768, 768], "dtype": "float32", "quantization": {"dtype": "uint16", "min": -0.16334399001484853, "scale": 5.438816968496272e-06, "original_dtype": "float32"}}, {"name": "StatefulPartitionedCall/tf_bert_for_sequence_classification/bert/encoder/layer_._0/attention/self/value/Tensordot/free", "shape": [2], "dtype": "int32"}, {"name": "StatefulPartitionedCall/tf_bert_for_sequence_classification/bert/encoder/layer_._0/attention/self/value/Tensordot/GatherV2/axis", "shape": [], "dtype": "int32"}, {"name": "StatefulPartitionedCall/tf_bert_for_sequence_classification/bert/encoder/layer_._0/attention/self/value/Tensordot/Const_2", "shape": [1], "dtype": "int32"}, {"name": "StatefulPartitionedCall/tf_bert_for_sequence_classification/bert/encoder/layer_._0/attention/self/value/Tensordot/concat_1/axis", "shape": [], "dtype": "int32"}, {"name": "StatefulPartitionedCall/tf_bert_for_sequence_classification/bert/encoder/layer_._0/attention/self/value/BiasAdd/ReadVariableOp", "shape": [768], "dtype": "float32", "quantization": {"dtype": "uint16", "min": -0.17712800758212585, "scale": 6.481320486740307e-06, "original_dtype": "float32"}}, {"name": "StatefulPartitionedCall/tf_bert_for_sequence_classification/bert/encoder/layer_._0/attention/self/Reshape_1/shape/1", "shape": [], "dtype": "int32"}, {"name": "StatefulPartitionedCall/tf_bert_for_sequence_classification/bert/encoder/layer_._0/attention/self/Reshape_1/shape/2", "shape": [], "dtype": "int32"}, {"name": "StatefulPartitionedCall/tf_bert_for_sequence_classification/bert/encoder/layer_._0/attention/self/Reshape_1/shape/3", "shape": [], "dtype": "int32"}, {"name": "StatefulPartitionedCall/tf_bert_for_sequence_classification/bert/encoder/layer_._0/attention/self/transpose_1/perm", "shape": [4], "dtype": "int32"}, {"name": "StatefulPartitionedCall/tf_bert_for_sequence_classification/bert/encoder/layer_._0/attention/self/transpose_3/perm", "shape": [4], "dtype": "int32"}, {"name": "StatefulPartitionedCall/tf_bert_for_sequence_classification/bert/encoder/layer_._0/attention/self/strided_slice/stack", "shape": [1], "dtype": "int32"}, {"name": "StatefulPartitionedCall/tf_bert_for_sequence_classification/bert/encoder/layer_._0/attention/self/strided_slice/stack_1", "shape": [1], "dtype": "int32"}, {"name": "StatefulPartitionedCall/tf_bert_for_sequence_classification/bert/encoder/layer_._0/attention/self/strided_slice/stack_2", "shape": [1], "dtype": "int32"}, {"name": "StatefulPartitionedCall/tf_bert_for_sequence_classification/bert/encoder/layer_._0/attention/self/Reshape_3/shape/1", "shape": [], "dtype": "int32"}, {"name": "StatefulPartitionedCall/tf_bert_for_sequence_classification/bert/encoder/layer_._0/attention/self/Reshape_3/shape/2", "shape": [], "dtype": "int32"}, {"name": "StatefulPartitionedCall/tf_bert_for_sequence_classification/bert/encoder/layer_._0/attention/output/dense/Tensordot/free", "shape": [2], "dtype": "int32"}, {"name": "StatefulPartitionedCall/tf_bert_for_sequence_classification/bert/encoder/layer_._0/attention/output/dense/Tensordot/GatherV2/axis", "shape": [], "dtype": "int32"}, {"name": "StatefulPartitionedCall/tf_bert_for_sequence_classification/bert/encoder/layer_._0/attention/output/dense/Tensordot/Const_2", "shape": [1], "dtype": "int32"}, {"name": "StatefulPartitionedCall/tf_bert_for_sequence_classification/bert/encoder/layer_._0/attention/output/dense/Tensordot/concat_1/axis", "shape": [], "dtype": "int32"}, {"name": "StatefulPartitionedCall/tf_bert_for_sequence_classification/bert/encoder/layer_._0/attention/output/dense/BiasAdd/ReadVariableOp", "shape": [768], "dtype": "float32", "quantization": {"dtype": "uint16", "min": -0.3046232345537235, "scale": 6.955344762283341e-06, "original_dtype": "float32"}}, {"name": "StatefulPartitionedCall/tf_bert_for_sequence_classification/bert/embeddings/LayerNorm/batchnorm/ReadVariableOp", "shape": [768], "dtype": "float32", "quantization": {"dtype": "uint16", "min": -0.5448710175794569, "scale": 2.056039461074891e-05, "original_dtype": "float32"}}, {"name": "unknown_0", "shape": [512, 768], "dtype": "float32", "quantization": {"dtype": "uint16", "min": -0.9525231793833204, "scale": 2.5578645489495433e-05, "original_dtype": "float32"}}, {"name": "StatefulPartitionedCall/tf_bert_for_sequence_classification/bert/embeddings/range/start", "shape": [], "dtype": "int32"}, {"name": "unknown", "shape": [30522, 768], "dtype": "float32", "quantization": {"dtype": "uint16", "min": -0.9489988720807201, "scale": 2.5600185381190185e-05, "original_dtype": "float32"}}, {"name": "StatefulPartitionedCall/tf_bert_for_sequence_classification/bert/embeddings/Gather/axis", "shape": [], "dtype": "int32"}, {"name": "StatefulPartitionedCall/tf_bert_for_sequence_classification/bert/embeddings/strided_slice_1/stack", "shape": [1], "dtype": "int32"}, {"name": "StatefulPartitionedCall/tf_bert_for_sequence_classification/bert/embeddings/strided_slice_1/stack_1", "shape": [1], "dtype": "int32"}, {"name": "StatefulPartitionedCall/tf_bert_for_sequence_classification/bert/embeddings/strided_slice_1/stack_2", "shape": [1], "dtype": "int32"}, {"name": "StatefulPartitionedCall/tf_bert_for_sequence_classification/bert/embeddings/range/delta", "shape": [], "dtype": "int32"}, {"name": "StatefulPartitionedCall/tf_bert_for_sequence_classification/bert/embeddings/ExpandDims/dim", "shape": [], "dtype": "int32"}, {"name": "StatefulPartitionedCall/tf_bert_for_sequence_classification/bert/embeddings/Gather_1/axis", "shape": [], "dtype": "int32"}, {"name": "unknown_1", "shape": [2, 768], "dtype": "float32", "quantization": {"dtype": "uint16", "min": -0.5515452988107535, "scale": 1.2806680261238386e-05, "original_dtype": "float32"}}, {"name": "StatefulPartitionedCall/tf_bert_for_sequence_classification/bert/strided_slice/stack", "shape": [1], "dtype": "int32"}, {"name": "StatefulPartitionedCall/tf_bert_for_sequence_classification/bert/strided_slice/stack_1", "shape": [1], "dtype": "int32"}, {"name": "StatefulPartitionedCall/tf_bert_for_sequence_classification/bert/strided_slice/stack_2", "shape": [1], "dtype": "int32"}, {"name": "StatefulPartitionedCall/tf_bert_for_sequence_classification/bert/strided_slice_1/stack", "shape": [1], "dtype": "int32"}, {"name": "StatefulPartitionedCall/tf_bert_for_sequence_classification/bert/strided_slice_1/stack_1", "shape": [1], "dtype": "int32"}, {"name": "StatefulPartitionedCall/tf_bert_for_sequence_classification/bert/strided_slice_1/stack_2", "shape": [1], "dtype": "int32"}, {"name": "StatefulPartitionedCall/tf_bert_for_sequence_classification/bert/Fill/value", "shape": [], "dtype": "int32"}, {"name": "StatefulPartitionedCall/tf_bert_for_sequence_classification/bert/embeddings/Gather_2/axis", "shape": [], "dtype": "int32"}, {"name": "StatefulPartitionedCall/tf_bert_for_sequence_classification/bert/embeddings/LayerNorm/moments/mean/reduction_indices", "shape": [1], "dtype": "int32"}, {"name": "StatefulPartitionedCall/tf_bert_for_sequence_classification/bert/embeddings/LayerNorm/moments/variance/reduction_indices", "shape": [1], "dtype": "int32"}, {"name": "StatefulPartitionedCall/tf_bert_for_sequence_classification/bert/embeddings/LayerNorm/batchnorm/add/y", "shape": [], "dtype": "float32", "quantization": {"dtype": "uint16", "min": 9.999999960041972e-13, "scale": 1.0, "original_dtype": "float32"}}, {"name": "StatefulPartitionedCall/tf_bert_for_sequence_classification/bert/embeddings/LayerNorm/batchnorm/mul/ReadVariableOp", "shape": [768], "dtype": "float32", "quantization": {"dtype": "uint16", "min": 0.08180604130029678, "scale": 1.3623934088795956e-05, "original_dtype": "float32"}}, {"name": "StatefulPartitionedCall/tf_bert_for_sequence_classification/bert/encoder/layer_._0/attention/output/LayerNorm/moments/mean/reduction_indices", "shape": [1], "dtype": "int32"}, {"name": "StatefulPartitionedCall/tf_bert_for_sequence_classification/bert/encoder/layer_._0/attention/output/LayerNorm/moments/variance/reduction_indices", "shape": [1], "dtype": "int32"}, {"name": "StatefulPartitionedCall/tf_bert_for_sequence_classification/bert/encoder/layer_._0/attention/output/LayerNorm/batchnorm/add/y", "shape": [], "dtype": "float32", "quantization": {"dtype": "uint16", "min": 9.999999960041972e-13, "scale": 1.0, "original_dtype": "float32"}}, {"name": "StatefulPartitionedCall/tf_bert_for_sequence_classification/bert/encoder/layer_._0/attention/output/LayerNorm/batchnorm/mul/ReadVariableOp", "shape": [768], "dtype": "float32", "quantization": {"dtype": "uint16", "min": 0.7138912677764893, "scale": 3.4905029323650935e-05, "original_dtype": "float32"}}, {"name": "StatefulPartitionedCall/tf_bert_for_sequence_classification/bert/encoder/layer_._0/output/LayerNorm/moments/mean/reduction_indices", "shape": [1], "dtype": "int32"}, {"name": "StatefulPartitionedCall/tf_bert_for_sequence_classification/bert/encoder/layer_._0/output/LayerNorm/moments/variance/reduction_indices", "shape": [1], "dtype": "int32"}, {"name": "StatefulPartitionedCall/tf_bert_for_sequence_classification/bert/encoder/layer_._0/output/LayerNorm/batchnorm/add/y", "shape": [], "dtype": "float32", "quantization": {"dtype": "uint16", "min": 9.999999960041972e-13, "scale": 1.0, "original_dtype": "float32"}}, {"name": "StatefulPartitionedCall/tf_bert_for_sequence_classification/bert/encoder/layer_._0/output/LayerNorm/batchnorm/mul/ReadVariableOp", "shape": [768], "dtype": "float32", "quantization": {"dtype": "uint16", "min": 0.10143355280160904, "scale": 1.0822028287753839e-05, "original_dtype": "float32"}}, {"name": "StatefulPartitionedCall/tf_bert_for_sequence_classification/bert/encoder/layer_._1/attention/output/LayerNorm/moments/mean/reduction_indices", "shape": [1], "dtype": "int32"}, {"name": "StatefulPartitionedCall/tf_bert_for_sequence_classification/bert/encoder/layer_._1/attention/output/LayerNorm/moments/variance/reduction_indices", "shape": [1], "dtype": "int32"}, {"name": "StatefulPartitionedCall/tf_bert_for_sequence_classification/bert/encoder/layer_._1/attention/output/LayerNorm/batchnorm/add/y", "shape": [], "dtype": "float32", "quantization": {"dtype": "uint16", "min": 9.999999960041972e-13, "scale": 1.0, "original_dtype": "float32"}}, {"name": "StatefulPartitionedCall/tf_bert_for_sequence_classification/bert/encoder/layer_._1/attention/output/LayerNorm/batchnorm/mul/ReadVariableOp", "shape": [768], "dtype": "float32", "quantization": {"dtype": "uint16", "min": 0.6522879004478455, "scale": 3.640909548563225e-05, "original_dtype": "float32"}}, {"name": "StatefulPartitionedCall/tf_bert_for_sequence_classification/bert/encoder/layer_._1/output/LayerNorm/moments/mean/reduction_indices", "shape": [1], "dtype": "int32"}, {"name": "StatefulPartitionedCall/tf_bert_for_sequence_classification/bert/encoder/layer_._1/output/LayerNorm/moments/variance/reduction_indices", "shape": [1], "dtype": "int32"}, {"name": "StatefulPartitionedCall/tf_bert_for_sequence_classification/bert/encoder/layer_._1/output/LayerNorm/batchnorm/add/y", "shape": [], "dtype": "float32", "quantization": {"dtype": "uint16", "min": 9.999999960041972e-13, "scale": 1.0, "original_dtype": "float32"}}, {"name": "StatefulPartitionedCall/tf_bert_for_sequence_classification/bert/encoder/layer_._1/output/LayerNorm/batchnorm/mul/ReadVariableOp", "shape": [768], "dtype": "float32", "quantization": {"dtype": "uint16", "min": 0.2772871255874634, "scale": 1.0530417667807145e-05, "original_dtype": "float32"}}, {"name": "StatefulPartitionedCall/tf_bert_for_sequence_classification/bert/encoder/layer_._2/attention/output/LayerNorm/moments/mean/reduction_indices", "shape": [1], "dtype": "int32"}, {"name": "StatefulPartitionedCall/tf_bert_for_sequence_classification/bert/encoder/layer_._2/attention/output/LayerNorm/moments/variance/reduction_indices", "shape": [1], "dtype": "int32"}, {"name": "StatefulPartitionedCall/tf_bert_for_sequence_classification/bert/encoder/layer_._2/attention/output/LayerNorm/batchnorm/add/y", "shape": [], "dtype": "float32", "quantization": {"dtype": "uint16", "min": 9.999999960041972e-13, "scale": 1.0, "original_dtype": "float32"}}, {"name": "StatefulPartitionedCall/tf_bert_for_sequence_classification/bert/encoder/layer_._2/attention/output/LayerNorm/batchnorm/mul/ReadVariableOp", "shape": [768], "dtype": "float32", "quantization": {"dtype": "uint16", "min": 0.5545127391815186, "scale": 2.634687737304613e-05, "original_dtype": "float32"}}, {"name": "StatefulPartitionedCall/tf_bert_for_sequence_classification/bert/encoder/layer_._2/output/LayerNorm/moments/mean/reduction_indices", "shape": [1], "dtype": "int32"}, {"name": "StatefulPartitionedCall/tf_bert_for_sequence_classification/bert/encoder/layer_._2/output/LayerNorm/moments/variance/reduction_indices", "shape": [1], "dtype": "int32"}, {"name": "StatefulPartitionedCall/tf_bert_for_sequence_classification/bert/encoder/layer_._2/output/LayerNorm/batchnorm/add/y", "shape": [], "dtype": "float32", "quantization": {"dtype": "uint16", "min": 9.999999960041972e-13, "scale": 1.0, "original_dtype": "float32"}}, {"name": "StatefulPartitionedCall/tf_bert_for_sequence_classification/bert/encoder/layer_._2/output/LayerNorm/batchnorm/mul/ReadVariableOp", "shape": [768], "dtype": "float32", "quantization": {"dtype": "uint16", "min": 0.40141209959983826, "scale": 8.232441921296705e-06, "original_dtype": "float32"}}, {"name": "StatefulPartitionedCall/tf_bert_for_sequence_classification/bert/encoder/layer_._3/attention/output/LayerNorm/moments/mean/reduction_indices", "shape": [1], "dtype": "int32"}, {"name": "StatefulPartitionedCall/tf_bert_for_sequence_classification/bert/encoder/layer_._3/attention/output/LayerNorm/moments/variance/reduction_indices", "shape": [1], "dtype": "int32"}, {"name": "StatefulPartitionedCall/tf_bert_for_sequence_classification/bert/encoder/layer_._3/attention/output/LayerNorm/batchnorm/add/y", "shape": [], "dtype": "float32", "quantization": {"dtype": "uint16", "min": 9.999999960041972e-13, "scale": 1.0, "original_dtype": "float32"}}, {"name": "StatefulPartitionedCall/tf_bert_for_sequence_classification/bert/encoder/layer_._3/attention/output/LayerNorm/batchnorm/mul/ReadVariableOp", "shape": [768], "dtype": "float32", "quantization": {"dtype": "uint16", "min": 0.5529681444168091, "scale": 4.475335011795473e-05, "original_dtype": "float32"}}, {"name": "StatefulPartitionedCall/tf_bert_for_sequence_classification/bert/encoder/layer_._3/output/LayerNorm/moments/mean/reduction_indices", "shape": [1], "dtype": "int32"}, {"name": "StatefulPartitionedCall/tf_bert_for_sequence_classification/bert/encoder/layer_._3/output/LayerNorm/moments/variance/reduction_indices", "shape": [1], "dtype": "int32"}, {"name": "StatefulPartitionedCall/tf_bert_for_sequence_classification/bert/encoder/layer_._3/output/LayerNorm/batchnorm/add/y", "shape": [], "dtype": "float32", "quantization": {"dtype": "uint16", "min": 9.999999960041972e-13, "scale": 1.0, "original_dtype": "float32"}}, {"name": "StatefulPartitionedCall/tf_bert_for_sequence_classification/bert/encoder/layer_._3/output/LayerNorm/batchnorm/mul/ReadVariableOp", "shape": [768], "dtype": "float32", "quantization": {"dtype": "uint16", "min": 0.39296963810920715, "scale": 7.819469546056626e-06, "original_dtype": "float32"}}, {"name": "StatefulPartitionedCall/tf_bert_for_sequence_classification/bert/encoder/layer_._4/attention/output/LayerNorm/moments/mean/reduction_indices", "shape": [1], "dtype": "int32"}, {"name": "StatefulPartitionedCall/tf_bert_for_sequence_classification/bert/encoder/layer_._4/attention/output/LayerNorm/moments/variance/reduction_indices", "shape": [1], "dtype": "int32"}, {"name": "StatefulPartitionedCall/tf_bert_for_sequence_classification/bert/encoder/layer_._4/attention/output/LayerNorm/batchnorm/add/y", "shape": [], "dtype": "float32", "quantization": {"dtype": "uint16", "min": 9.999999960041972e-13, "scale": 1.0, "original_dtype": "float32"}}, {"name": "StatefulPartitionedCall/tf_bert_for_sequence_classification/bert/encoder/layer_._4/attention/output/LayerNorm/batchnorm/mul/ReadVariableOp", "shape": [768], "dtype": "float32", "quantization": {"dtype": "uint16", "min": 0.5606827139854431, "scale": 4.836018374521563e-05, "original_dtype": "float32"}}, {"name": "StatefulPartitionedCall/tf_bert_for_sequence_classification/bert/encoder/layer_._4/output/LayerNorm/moments/mean/reduction_indices", "shape": [1], "dtype": "int32"}, {"name": "StatefulPartitionedCall/tf_bert_for_sequence_classification/bert/encoder/layer_._4/output/LayerNorm/moments/variance/reduction_indices", "shape": [1], "dtype": "int32"}, {"name": "StatefulPartitionedCall/tf_bert_for_sequence_classification/bert/encoder/layer_._4/output/LayerNorm/batchnorm/add/y", "shape": [], "dtype": "float32", "quantization": {"dtype": "uint16", "min": 9.999999960041972e-13, "scale": 1.0, "original_dtype": "float32"}}, {"name": "StatefulPartitionedCall/tf_bert_for_sequence_classification/bert/encoder/layer_._4/output/LayerNorm/batchnorm/mul/ReadVariableOp", "shape": [768], "dtype": "float32", "quantization": {"dtype": "uint16", "min": 0.363422691822052, "scale": 8.720166351953998e-06, "original_dtype": "float32"}}, {"name": "StatefulPartitionedCall/tf_bert_for_sequence_classification/bert/encoder/layer_._5/attention/output/LayerNorm/moments/mean/reduction_indices", "shape": [1], "dtype": "int32"}, {"name": "StatefulPartitionedCall/tf_bert_for_sequence_classification/bert/encoder/layer_._5/attention/output/LayerNorm/moments/variance/reduction_indices", "shape": [1], "dtype": "int32"}, {"name": "StatefulPartitionedCall/tf_bert_for_sequence_classification/bert/encoder/layer_._5/attention/output/LayerNorm/batchnorm/add/y", "shape": [], "dtype": "float32", "quantization": {"dtype": "uint16", "min": 9.999999960041972e-13, "scale": 1.0, "original_dtype": "float32"}}, {"name": "StatefulPartitionedCall/tf_bert_for_sequence_classification/bert/encoder/layer_._5/attention/output/LayerNorm/batchnorm/mul/ReadVariableOp", "shape": [768], "dtype": "float32", "quantization": {"dtype": "uint16", "min": 0.6009516716003418, "scale": 4.257544632988299e-05, "original_dtype": "float32"}}, {"name": "StatefulPartitionedCall/tf_bert_for_sequence_classification/bert/encoder/layer_._5/output/LayerNorm/moments/mean/reduction_indices", "shape": [1], "dtype": "int32"}, {"name": "StatefulPartitionedCall/tf_bert_for_sequence_classification/bert/encoder/layer_._5/output/LayerNorm/moments/variance/reduction_indices", "shape": [1], "dtype": "int32"}, {"name": "StatefulPartitionedCall/tf_bert_for_sequence_classification/bert/encoder/layer_._5/output/LayerNorm/batchnorm/add/y", "shape": [], "dtype": "float32", "quantization": {"dtype": "uint16", "min": 9.999999960041972e-13, "scale": 1.0, "original_dtype": "float32"}}, {"name": "StatefulPartitionedCall/tf_bert_for_sequence_classification/bert/encoder/layer_._5/output/LayerNorm/batchnorm/mul/ReadVariableOp", "shape": [768], "dtype": "float32", "quantization": {"dtype": "uint16", "min": 0.4141991138458252, "scale": 7.947952639841056e-06, "original_dtype": "float32"}}, {"name": "StatefulPartitionedCall/tf_bert_for_sequence_classification/bert/encoder/layer_._6/attention/output/LayerNorm/moments/mean/reduction_indices", "shape": [1], "dtype": "int32"}, {"name": "StatefulPartitionedCall/tf_bert_for_sequence_classification/bert/encoder/layer_._6/attention/output/LayerNorm/moments/variance/reduction_indices", "shape": [1], "dtype": "int32"}, {"name": "StatefulPartitionedCall/tf_bert_for_sequence_classification/bert/encoder/layer_._6/attention/output/LayerNorm/batchnorm/add/y", "shape": [], "dtype": "float32", "quantization": {"dtype": "uint16", "min": 9.999999960041972e-13, "scale": 1.0, "original_dtype": "float32"}}, {"name": "StatefulPartitionedCall/tf_bert_for_sequence_classification/bert/encoder/layer_._6/attention/output/LayerNorm/batchnorm/mul/ReadVariableOp", "shape": [768], "dtype": "float32", "quantization": {"dtype": "uint16", "min": 0.6194480657577515, "scale": 4.1555081387356345e-05, "original_dtype": "float32"}}, {"name": "StatefulPartitionedCall/tf_bert_for_sequence_classification/bert/encoder/layer_._6/output/LayerNorm/moments/mean/reduction_indices", "shape": [1], "dtype": "int32"}, {"name": "StatefulPartitionedCall/tf_bert_for_sequence_classification/bert/encoder/layer_._6/output/LayerNorm/moments/variance/reduction_indices", "shape": [1], "dtype": "int32"}, {"name": "StatefulPartitionedCall/tf_bert_for_sequence_classification/bert/encoder/layer_._6/output/LayerNorm/batchnorm/add/y", "shape": [], "dtype": "float32", "quantization": {"dtype": "uint16", "min": 9.999999960041972e-13, "scale": 1.0, "original_dtype": "float32"}}, {"name": "StatefulPartitionedCall/tf_bert_for_sequence_classification/bert/encoder/layer_._6/output/LayerNorm/batchnorm/mul/ReadVariableOp", "shape": [768], "dtype": "float32", "quantization": {"dtype": "uint16", "min": 0.3784599304199219, "scale": 8.111464092312556e-06, "original_dtype": "float32"}}, {"name": "StatefulPartitionedCall/tf_bert_for_sequence_classification/bert/encoder/layer_._7/attention/output/LayerNorm/moments/mean/reduction_indices", "shape": [1], "dtype": "int32"}, {"name": "StatefulPartitionedCall/tf_bert_for_sequence_classification/bert/encoder/layer_._7/attention/output/LayerNorm/moments/variance/reduction_indices", "shape": [1], "dtype": "int32"}, {"name": "StatefulPartitionedCall/tf_bert_for_sequence_classification/bert/encoder/layer_._7/attention/output/LayerNorm/batchnorm/add/y", "shape": [], "dtype": "float32", "quantization": {"dtype": "uint16", "min": 9.999999960041972e-13, "scale": 1.0, "original_dtype": "float32"}}, {"name": "StatefulPartitionedCall/tf_bert_for_sequence_classification/bert/encoder/layer_._7/attention/output/LayerNorm/batchnorm/mul/ReadVariableOp", "shape": [768], "dtype": "float32", "quantization": {"dtype": "uint16", "min": 0.6389002799987793, "scale": 4.159075049483786e-05, "original_dtype": "float32"}}, {"name": "StatefulPartitionedCall/tf_bert_for_sequence_classification/bert/encoder/layer_._7/output/LayerNorm/moments/mean/reduction_indices", "shape": [1], "dtype": "int32"}, {"name": "StatefulPartitionedCall/tf_bert_for_sequence_classification/bert/encoder/layer_._7/output/LayerNorm/moments/variance/reduction_indices", "shape": [1], "dtype": "int32"}, {"name": "StatefulPartitionedCall/tf_bert_for_sequence_classification/bert/encoder/layer_._7/output/LayerNorm/batchnorm/add/y", "shape": [], "dtype": "float32", "quantization": {"dtype": "uint16", "min": 9.999999960041972e-13, "scale": 1.0, "original_dtype": "float32"}}, {"name": "StatefulPartitionedCall/tf_bert_for_sequence_classification/bert/encoder/layer_._7/output/LayerNorm/batchnorm/mul/ReadVariableOp", "shape": [768], "dtype": "float32", "quantization": {"dtype": "uint16", "min": 0.33945703506469727, "scale": 1.2474630502374983e-05, "original_dtype": "float32"}}, {"name": "StatefulPartitionedCall/tf_bert_for_sequence_classification/bert/encoder/layer_._8/attention/output/LayerNorm/moments/mean/reduction_indices", "shape": [1], "dtype": "int32"}, {"name": "StatefulPartitionedCall/tf_bert_for_sequence_classification/bert/encoder/layer_._8/attention/output/LayerNorm/moments/variance/reduction_indices", "shape": [1], "dtype": "int32"}, {"name": "StatefulPartitionedCall/tf_bert_for_sequence_classification/bert/encoder/layer_._8/attention/output/LayerNorm/batchnorm/add/y", "shape": [], "dtype": "float32", "quantization": {"dtype": "uint16", "min": 9.999999960041972e-13, "scale": 1.0, "original_dtype": "float32"}}, {"name": "StatefulPartitionedCall/tf_bert_for_sequence_classification/bert/encoder/layer_._8/attention/output/LayerNorm/batchnorm/mul/ReadVariableOp", "shape": [768], "dtype": "float32", "quantization": {"dtype": "uint16", "min": 0.6127780079841614, "scale": 4.264103190307897e-05, "original_dtype": "float32"}}, {"name": "StatefulPartitionedCall/tf_bert_for_sequence_classification/bert/encoder/layer_._8/output/LayerNorm/moments/mean/reduction_indices", "shape": [1], "dtype": "int32"}, {"name": "StatefulPartitionedCall/tf_bert_for_sequence_classification/bert/encoder/layer_._8/output/LayerNorm/moments/variance/reduction_indices", "shape": [1], "dtype": "int32"}, {"name": "StatefulPartitionedCall/tf_bert_for_sequence_classification/bert/encoder/layer_._8/output/LayerNorm/batchnorm/add/y", "shape": [], "dtype": "float32", "quantization": {"dtype": "uint16", "min": 9.999999960041972e-13, "scale": 1.0, "original_dtype": "float32"}}, {"name": "StatefulPartitionedCall/tf_bert_for_sequence_classification/bert/encoder/layer_._8/output/LayerNorm/batchnorm/mul/ReadVariableOp", "shape": [768], "dtype": "float32", "quantization": {"dtype": "uint16", "min": 0.26687467098236084, "scale": 2.053472645961057e-05, "original_dtype": "float32"}}, {"name": "StatefulPartitionedCall/tf_bert_for_sequence_classification/bert/encoder/layer_._9/attention/output/LayerNorm/moments/mean/reduction_indices", "shape": [1], "dtype": "int32"}, {"name": "StatefulPartitionedCall/tf_bert_for_sequence_classification/bert/encoder/layer_._9/attention/output/LayerNorm/moments/variance/reduction_indices", "shape": [1], "dtype": "int32"}, {"name": "StatefulPartitionedCall/tf_bert_for_sequence_classification/bert/encoder/layer_._9/attention/output/LayerNorm/batchnorm/add/y", "shape": [], "dtype": "float32", "quantization": {"dtype": "uint16", "min": 9.999999960041972e-13, "scale": 1.0, "original_dtype": "float32"}}, {"name": "StatefulPartitionedCall/tf_bert_for_sequence_classification/bert/encoder/layer_._9/attention/output/LayerNorm/batchnorm/mul/ReadVariableOp", "shape": [768], "dtype": "float32", "quantization": {"dtype": "uint16", "min": 0.6037778258323669, "scale": 2.936977193076705e-05, "original_dtype": "float32"}}, {"name": "StatefulPartitionedCall/tf_bert_for_sequence_classification/bert/encoder/layer_._9/output/LayerNorm/moments/mean/reduction_indices", "shape": [1], "dtype": "int32"}, {"name": "StatefulPartitionedCall/tf_bert_for_sequence_classification/bert/encoder/layer_._9/output/LayerNorm/moments/variance/reduction_indices", "shape": [1], "dtype": "int32"}, {"name": "StatefulPartitionedCall/tf_bert_for_sequence_classification/bert/encoder/layer_._9/output/LayerNorm/batchnorm/add/y", "shape": [], "dtype": "float32", "quantization": {"dtype": "uint16", "min": 9.999999960041972e-13, "scale": 1.0, "original_dtype": "float32"}}, {"name": "StatefulPartitionedCall/tf_bert_for_sequence_classification/bert/encoder/layer_._9/output/LayerNorm/batchnorm/mul/ReadVariableOp", "shape": [768], "dtype": "float32", "quantization": {"dtype": "uint16", "min": 0.13486836850643158, "scale": 1.9803239859568405e-05, "original_dtype": "float32"}}, {"name": "StatefulPartitionedCall/tf_bert_for_sequence_classification/bert/encoder/layer_._10/attention/output/LayerNorm/moments/mean/reduction_indices", "shape": [1], "dtype": "int32"}, {"name": "StatefulPartitionedCall/tf_bert_for_sequence_classification/bert/encoder/layer_._10/attention/output/LayerNorm/moments/variance/reduction_indices", "shape": [1], "dtype": "int32"}, {"name": "StatefulPartitionedCall/tf_bert_for_sequence_classification/bert/encoder/layer_._10/attention/output/LayerNorm/batchnorm/add/y", "shape": [], "dtype": "float32", "quantization": {"dtype": "uint16", "min": 9.999999960041972e-13, "scale": 1.0, "original_dtype": "float32"}}, {"name": "StatefulPartitionedCall/tf_bert_for_sequence_classification/bert/encoder/layer_._10/attention/output/LayerNorm/batchnorm/mul/ReadVariableOp", "shape": [768], "dtype": "float32", "quantization": {"dtype": "uint16", "min": 0.5296008586883545, "scale": 4.0733320376343135e-05, "original_dtype": "float32"}}, {"name": "StatefulPartitionedCall/tf_bert_for_sequence_classification/bert/encoder/layer_._10/output/LayerNorm/moments/mean/reduction_indices", "shape": [1], "dtype": "int32"}, {"name": "StatefulPartitionedCall/tf_bert_for_sequence_classification/bert/encoder/layer_._10/output/LayerNorm/moments/variance/reduction_indices", "shape": [1], "dtype": "int32"}, {"name": "StatefulPartitionedCall/tf_bert_for_sequence_classification/bert/encoder/layer_._10/output/LayerNorm/batchnorm/add/y", "shape": [], "dtype": "float32", "quantization": {"dtype": "uint16", "min": 9.999999960041972e-13, "scale": 1.0, "original_dtype": "float32"}}, {"name": "StatefulPartitionedCall/tf_bert_for_sequence_classification/bert/encoder/layer_._10/output/LayerNorm/batchnorm/mul/ReadVariableOp", "shape": [768], "dtype": "float32", "quantization": {"dtype": "uint16", "min": 0.13642564415931702, "scale": 2.3373698828067023e-05, "original_dtype": "float32"}}, {"name": "StatefulPartitionedCall/tf_bert_for_sequence_classification/bert/encoder/layer_._11/attention/output/LayerNorm/moments/mean/reduction_indices", "shape": [1], "dtype": "int32"}, {"name": "StatefulPartitionedCall/tf_bert_for_sequence_classification/bert/encoder/layer_._11/attention/output/LayerNorm/moments/variance/reduction_indices", "shape": [1], "dtype": "int32"}, {"name": "StatefulPartitionedCall/tf_bert_for_sequence_classification/bert/encoder/layer_._11/attention/output/LayerNorm/batchnorm/add/y", "shape": [], "dtype": "float32", "quantization": {"dtype": "uint16", "min": 9.999999960041972e-13, "scale": 1.0, "original_dtype": "float32"}}, {"name": "StatefulPartitionedCall/tf_bert_for_sequence_classification/bert/encoder/layer_._11/attention/output/LayerNorm/batchnorm/mul/ReadVariableOp", "shape": [768], "dtype": "float32", "quantization": {"dtype": "uint16", "min": 0.65207439661026, "scale": 1.4611370841634805e-05, "original_dtype": "float32"}}, {"name": "StatefulPartitionedCall/tf_bert_for_sequence_classification/bert/encoder/layer_._11/output/LayerNorm/moments/mean/reduction_indices", "shape": [1], "dtype": "int32"}, {"name": "StatefulPartitionedCall/tf_bert_for_sequence_classification/bert/encoder/layer_._11/output/LayerNorm/moments/variance/reduction_indices", "shape": [1], "dtype": "int32"}, {"name": "StatefulPartitionedCall/tf_bert_for_sequence_classification/bert/encoder/layer_._11/output/LayerNorm/batchnorm/add/y", "shape": [], "dtype": "float32", "quantization": {"dtype": "uint16", "min": 9.999999960041972e-13, "scale": 1.0, "original_dtype": "float32"}}, {"name": "StatefulPartitionedCall/tf_bert_for_sequence_classification/bert/encoder/layer_._11/output/LayerNorm/batchnorm/mul/ReadVariableOp", "shape": [768], "dtype": "float32", "quantization": {"dtype": "uint16", "min": 0.2701914608478546, "scale": 7.771493877982206e-06, "original_dtype": "float32"}}, {"name": "StatefulPartitionedCall/tf_bert_for_sequence_classification/bert/pooler/strided_slice/stack", "shape": [2], "dtype": "int32"}, {"name": "StatefulPartitionedCall/tf_bert_for_sequence_classification/bert/pooler/strided_slice/stack_1", "shape": [2], "dtype": "int32"}, {"name": "StatefulPartitionedCall/tf_bert_for_sequence_classification/bert/pooler/strided_slice/stack_2", "shape": [2], "dtype": "int32"}, {"name": "StatefulPartitionedCall/tf_bert_for_sequence_classification/bert/pooler/dense/MatMul/ReadVariableOp", "shape": [768, 768], "dtype": "float32", "quantization": {"dtype": "uint16", "min": -0.37578560097944985, "scale": 1.1555878132151968e-05, "original_dtype": "float32"}}, {"name": "StatefulPartitionedCall/tf_bert_for_sequence_classification/bert/pooler/dense/BiasAdd/ReadVariableOp", "shape": [768], "dtype": "float32", "quantization": {"dtype": "uint16", "min": -0.09714748691419282, "scale": 3.117498456908826e-06, "original_dtype": "float32"}}, {"name": "StatefulPartitionedCall/tf_bert_for_sequence_classification/classifier/MatMul/ReadVariableOp", "shape": [768, 6], "dtype": "float32", "quantization": {"dtype": "uint16", "min": -0.0790895131848138, "scale": 2.5163701299654407e-06, "original_dtype": "float32"}}, {"name": "StatefulPartitionedCall/tf_bert_for_sequence_classification/classifier/BiasAdd/ReadVariableOp", "shape": [6], "dtype": "float32", "quantization": {"dtype": "uint16", "min": -0.007269827648997307, "scale": 8.640485165049957e-08, "original_dtype": "float32"}}]}]}